{
    "format": "layers-model",
    "generatedBy": "keras v2.6.0",
    "convertedBy": "TensorFlow.js Converter v3.15.0",
    "modelTopology": {
        "keras_version": "2.6.0",
        "backend": "tensorflow",
        "model_config": {
            "class_name": "Functional",
            "config": {
                "name": "model_19",
                "layers": [
                    {
                        "class_name": "InputLayer",
                        "config": {
                            "batch_input_shape": [
                                null,
                                36,
                                60,
                                3
                            ],
                            "dtype": "float32",
                            "sparse": false,
                            "ragged": false,
                            "name": "input_13"
                        },
                        "name": "input_13",
                        "inbound_nodes": []
                    },
                    {
                        "class_name": "InputLayer",
                        "config": {
                            "batch_input_shape": [
                                null,
                                36,
                                60,
                                3
                            ],
                            "dtype": "float32",
                            "sparse": false,
                            "ragged": false,
                            "name": "input_14"
                        },
                        "name": "input_14",
                        "inbound_nodes": []
                    },
                    {
                        "class_name": "Conv2D",
                        "config": {
                            "name": "conv2d_192",
                            "trainable": true,
                            "dtype": "float32",
                            "filters": 32,
                            "kernel_size": [
                                3,
                                3
                            ],
                            "strides": [
                                1,
                                1
                            ],
                            "padding": "same",
                            "data_format": "channels_last",
                            "dilation_rate": [
                                1,
                                1
                            ],
                            "groups": 1,
                            "activation": "relu",
                            "use_bias": true,
                            "kernel_initializer": {
                                "class_name": "GlorotUniform",
                                "config": {
                                    "seed": null
                                }
                            },
                            "bias_initializer": {
                                "class_name": "Zeros",
                                "config": {}
                            },
                            "kernel_regularizer": null,
                            "bias_regularizer": null,
                            "activity_regularizer": null,
                            "kernel_constraint": null,
                            "bias_constraint": null
                        },
                        "name": "conv2d_192",
                        "inbound_nodes": [
                            [
                                [
                                    "input_13",
                                    0,
                                    0,
                                    {}
                                ]
                            ]
                        ]
                    },
                    {
                        "class_name": "Conv2D",
                        "config": {
                            "name": "conv2d_208",
                            "trainable": true,
                            "dtype": "float32",
                            "filters": 32,
                            "kernel_size": [
                                3,
                                3
                            ],
                            "strides": [
                                1,
                                1
                            ],
                            "padding": "same",
                            "data_format": "channels_last",
                            "dilation_rate": [
                                1,
                                1
                            ],
                            "groups": 1,
                            "activation": "relu",
                            "use_bias": true,
                            "kernel_initializer": {
                                "class_name": "GlorotUniform",
                                "config": {
                                    "seed": null
                                }
                            },
                            "bias_initializer": {
                                "class_name": "Zeros",
                                "config": {}
                            },
                            "kernel_regularizer": null,
                            "bias_regularizer": null,
                            "activity_regularizer": null,
                            "kernel_constraint": null,
                            "bias_constraint": null
                        },
                        "name": "conv2d_208",
                        "inbound_nodes": [
                            [
                                [
                                    "input_14",
                                    0,
                                    0,
                                    {}
                                ]
                            ]
                        ]
                    },
                    {
                        "class_name": "BatchNormalization",
                        "config": {
                            "name": "batch_normalization_192",
                            "trainable": true,
                            "dtype": "float32",
                            "axis": [
                                3
                            ],
                            "momentum": 0.9,
                            "epsilon": 0.001,
                            "center": true,
                            "scale": true,
                            "beta_initializer": {
                                "class_name": "Zeros",
                                "config": {}
                            },
                            "gamma_initializer": {
                                "class_name": "Ones",
                                "config": {}
                            },
                            "moving_mean_initializer": {
                                "class_name": "Zeros",
                                "config": {}
                            },
                            "moving_variance_initializer": {
                                "class_name": "Ones",
                                "config": {}
                            },
                            "beta_regularizer": null,
                            "gamma_regularizer": null,
                            "beta_constraint": null,
                            "gamma_constraint": null
                        },
                        "name": "batch_normalization_192",
                        "inbound_nodes": [
                            [
                                [
                                    "conv2d_192",
                                    0,
                                    0,
                                    {}
                                ]
                            ]
                        ]
                    },
                    {
                        "class_name": "BatchNormalization",
                        "config": {
                            "name": "batch_normalization_208",
                            "trainable": true,
                            "dtype": "float32",
                            "axis": [
                                3
                            ],
                            "momentum": 0.9,
                            "epsilon": 0.001,
                            "center": true,
                            "scale": true,
                            "beta_initializer": {
                                "class_name": "Zeros",
                                "config": {}
                            },
                            "gamma_initializer": {
                                "class_name": "Ones",
                                "config": {}
                            },
                            "moving_mean_initializer": {
                                "class_name": "Zeros",
                                "config": {}
                            },
                            "moving_variance_initializer": {
                                "class_name": "Ones",
                                "config": {}
                            },
                            "beta_regularizer": null,
                            "gamma_regularizer": null,
                            "beta_constraint": null,
                            "gamma_constraint": null
                        },
                        "name": "batch_normalization_208",
                        "inbound_nodes": [
                            [
                                [
                                    "conv2d_208",
                                    0,
                                    0,
                                    {}
                                ]
                            ]
                        ]
                    },
                    {
                        "class_name": "Conv2D",
                        "config": {
                            "name": "conv2d_193",
                            "trainable": true,
                            "dtype": "float32",
                            "filters": 24,
                            "kernel_size": [
                                1,
                                1
                            ],
                            "strides": [
                                1,
                                1
                            ],
                            "padding": "same",
                            "data_format": "channels_last",
                            "dilation_rate": [
                                1,
                                1
                            ],
                            "groups": 1,
                            "activation": "relu",
                            "use_bias": true,
                            "kernel_initializer": {
                                "class_name": "GlorotUniform",
                                "config": {
                                    "seed": null
                                }
                            },
                            "bias_initializer": {
                                "class_name": "Zeros",
                                "config": {}
                            },
                            "kernel_regularizer": null,
                            "bias_regularizer": null,
                            "activity_regularizer": null,
                            "kernel_constraint": null,
                            "bias_constraint": null
                        },
                        "name": "conv2d_193",
                        "inbound_nodes": [
                            [
                                [
                                    "batch_normalization_192",
                                    0,
                                    0,
                                    {}
                                ]
                            ]
                        ]
                    },
                    {
                        "class_name": "Conv2D",
                        "config": {
                            "name": "conv2d_209",
                            "trainable": true,
                            "dtype": "float32",
                            "filters": 24,
                            "kernel_size": [
                                1,
                                1
                            ],
                            "strides": [
                                1,
                                1
                            ],
                            "padding": "same",
                            "data_format": "channels_last",
                            "dilation_rate": [
                                1,
                                1
                            ],
                            "groups": 1,
                            "activation": "relu",
                            "use_bias": true,
                            "kernel_initializer": {
                                "class_name": "GlorotUniform",
                                "config": {
                                    "seed": null
                                }
                            },
                            "bias_initializer": {
                                "class_name": "Zeros",
                                "config": {}
                            },
                            "kernel_regularizer": null,
                            "bias_regularizer": null,
                            "activity_regularizer": null,
                            "kernel_constraint": null,
                            "bias_constraint": null
                        },
                        "name": "conv2d_209",
                        "inbound_nodes": [
                            [
                                [
                                    "batch_normalization_208",
                                    0,
                                    0,
                                    {}
                                ]
                            ]
                        ]
                    },
                    {
                        "class_name": "BatchNormalization",
                        "config": {
                            "name": "batch_normalization_193",
                            "trainable": true,
                            "dtype": "float32",
                            "axis": [
                                3
                            ],
                            "momentum": 0.9,
                            "epsilon": 0.001,
                            "center": true,
                            "scale": true,
                            "beta_initializer": {
                                "class_name": "Zeros",
                                "config": {}
                            },
                            "gamma_initializer": {
                                "class_name": "Ones",
                                "config": {}
                            },
                            "moving_mean_initializer": {
                                "class_name": "Zeros",
                                "config": {}
                            },
                            "moving_variance_initializer": {
                                "class_name": "Ones",
                                "config": {}
                            },
                            "beta_regularizer": null,
                            "gamma_regularizer": null,
                            "beta_constraint": null,
                            "gamma_constraint": null
                        },
                        "name": "batch_normalization_193",
                        "inbound_nodes": [
                            [
                                [
                                    "conv2d_193",
                                    0,
                                    0,
                                    {}
                                ]
                            ]
                        ]
                    },
                    {
                        "class_name": "BatchNormalization",
                        "config": {
                            "name": "batch_normalization_209",
                            "trainable": true,
                            "dtype": "float32",
                            "axis": [
                                3
                            ],
                            "momentum": 0.9,
                            "epsilon": 0.001,
                            "center": true,
                            "scale": true,
                            "beta_initializer": {
                                "class_name": "Zeros",
                                "config": {}
                            },
                            "gamma_initializer": {
                                "class_name": "Ones",
                                "config": {}
                            },
                            "moving_mean_initializer": {
                                "class_name": "Zeros",
                                "config": {}
                            },
                            "moving_variance_initializer": {
                                "class_name": "Ones",
                                "config": {}
                            },
                            "beta_regularizer": null,
                            "gamma_regularizer": null,
                            "beta_constraint": null,
                            "gamma_constraint": null
                        },
                        "name": "batch_normalization_209",
                        "inbound_nodes": [
                            [
                                [
                                    "conv2d_209",
                                    0,
                                    0,
                                    {}
                                ]
                            ]
                        ]
                    },
                    {
                        "class_name": "Conv2D",
                        "config": {
                            "name": "conv2d_194",
                            "trainable": true,
                            "dtype": "float32",
                            "filters": 24,
                            "kernel_size": [
                                1,
                                1
                            ],
                            "strides": [
                                1,
                                1
                            ],
                            "padding": "same",
                            "data_format": "channels_last",
                            "dilation_rate": [
                                1,
                                1
                            ],
                            "groups": 1,
                            "activation": "relu",
                            "use_bias": true,
                            "kernel_initializer": {
                                "class_name": "GlorotUniform",
                                "config": {
                                    "seed": null
                                }
                            },
                            "bias_initializer": {
                                "class_name": "Zeros",
                                "config": {}
                            },
                            "kernel_regularizer": null,
                            "bias_regularizer": null,
                            "activity_regularizer": null,
                            "kernel_constraint": null,
                            "bias_constraint": null
                        },
                        "name": "conv2d_194",
                        "inbound_nodes": [
                            [
                                [
                                    "batch_normalization_193",
                                    0,
                                    0,
                                    {}
                                ]
                            ]
                        ]
                    },
                    {
                        "class_name": "Conv2D",
                        "config": {
                            "name": "conv2d_195",
                            "trainable": true,
                            "dtype": "float32",
                            "filters": 24,
                            "kernel_size": [
                                3,
                                3
                            ],
                            "strides": [
                                1,
                                1
                            ],
                            "padding": "same",
                            "data_format": "channels_last",
                            "dilation_rate": [
                                1,
                                1
                            ],
                            "groups": 1,
                            "activation": "relu",
                            "use_bias": true,
                            "kernel_initializer": {
                                "class_name": "GlorotUniform",
                                "config": {
                                    "seed": null
                                }
                            },
                            "bias_initializer": {
                                "class_name": "Zeros",
                                "config": {}
                            },
                            "kernel_regularizer": null,
                            "bias_regularizer": null,
                            "activity_regularizer": null,
                            "kernel_constraint": null,
                            "bias_constraint": null
                        },
                        "name": "conv2d_195",
                        "inbound_nodes": [
                            [
                                [
                                    "batch_normalization_193",
                                    0,
                                    0,
                                    {}
                                ]
                            ]
                        ]
                    },
                    {
                        "class_name": "Conv2D",
                        "config": {
                            "name": "conv2d_210",
                            "trainable": true,
                            "dtype": "float32",
                            "filters": 24,
                            "kernel_size": [
                                1,
                                1
                            ],
                            "strides": [
                                1,
                                1
                            ],
                            "padding": "same",
                            "data_format": "channels_last",
                            "dilation_rate": [
                                1,
                                1
                            ],
                            "groups": 1,
                            "activation": "relu",
                            "use_bias": true,
                            "kernel_initializer": {
                                "class_name": "GlorotUniform",
                                "config": {
                                    "seed": null
                                }
                            },
                            "bias_initializer": {
                                "class_name": "Zeros",
                                "config": {}
                            },
                            "kernel_regularizer": null,
                            "bias_regularizer": null,
                            "activity_regularizer": null,
                            "kernel_constraint": null,
                            "bias_constraint": null
                        },
                        "name": "conv2d_210",
                        "inbound_nodes": [
                            [
                                [
                                    "batch_normalization_209",
                                    0,
                                    0,
                                    {}
                                ]
                            ]
                        ]
                    },
                    {
                        "class_name": "Conv2D",
                        "config": {
                            "name": "conv2d_211",
                            "trainable": true,
                            "dtype": "float32",
                            "filters": 24,
                            "kernel_size": [
                                3,
                                3
                            ],
                            "strides": [
                                1,
                                1
                            ],
                            "padding": "same",
                            "data_format": "channels_last",
                            "dilation_rate": [
                                1,
                                1
                            ],
                            "groups": 1,
                            "activation": "relu",
                            "use_bias": true,
                            "kernel_initializer": {
                                "class_name": "GlorotUniform",
                                "config": {
                                    "seed": null
                                }
                            },
                            "bias_initializer": {
                                "class_name": "Zeros",
                                "config": {}
                            },
                            "kernel_regularizer": null,
                            "bias_regularizer": null,
                            "activity_regularizer": null,
                            "kernel_constraint": null,
                            "bias_constraint": null
                        },
                        "name": "conv2d_211",
                        "inbound_nodes": [
                            [
                                [
                                    "batch_normalization_209",
                                    0,
                                    0,
                                    {}
                                ]
                            ]
                        ]
                    },
                    {
                        "class_name": "BatchNormalization",
                        "config": {
                            "name": "batch_normalization_194",
                            "trainable": true,
                            "dtype": "float32",
                            "axis": [
                                3
                            ],
                            "momentum": 0.9,
                            "epsilon": 0.001,
                            "center": true,
                            "scale": true,
                            "beta_initializer": {
                                "class_name": "Zeros",
                                "config": {}
                            },
                            "gamma_initializer": {
                                "class_name": "Ones",
                                "config": {}
                            },
                            "moving_mean_initializer": {
                                "class_name": "Zeros",
                                "config": {}
                            },
                            "moving_variance_initializer": {
                                "class_name": "Ones",
                                "config": {}
                            },
                            "beta_regularizer": null,
                            "gamma_regularizer": null,
                            "beta_constraint": null,
                            "gamma_constraint": null
                        },
                        "name": "batch_normalization_194",
                        "inbound_nodes": [
                            [
                                [
                                    "conv2d_194",
                                    0,
                                    0,
                                    {}
                                ]
                            ]
                        ]
                    },
                    {
                        "class_name": "BatchNormalization",
                        "config": {
                            "name": "batch_normalization_195",
                            "trainable": true,
                            "dtype": "float32",
                            "axis": [
                                3
                            ],
                            "momentum": 0.9,
                            "epsilon": 0.001,
                            "center": true,
                            "scale": true,
                            "beta_initializer": {
                                "class_name": "Zeros",
                                "config": {}
                            },
                            "gamma_initializer": {
                                "class_name": "Ones",
                                "config": {}
                            },
                            "moving_mean_initializer": {
                                "class_name": "Zeros",
                                "config": {}
                            },
                            "moving_variance_initializer": {
                                "class_name": "Ones",
                                "config": {}
                            },
                            "beta_regularizer": null,
                            "gamma_regularizer": null,
                            "beta_constraint": null,
                            "gamma_constraint": null
                        },
                        "name": "batch_normalization_195",
                        "inbound_nodes": [
                            [
                                [
                                    "conv2d_195",
                                    0,
                                    0,
                                    {}
                                ]
                            ]
                        ]
                    },
                    {
                        "class_name": "BatchNormalization",
                        "config": {
                            "name": "batch_normalization_210",
                            "trainable": true,
                            "dtype": "float32",
                            "axis": [
                                3
                            ],
                            "momentum": 0.9,
                            "epsilon": 0.001,
                            "center": true,
                            "scale": true,
                            "beta_initializer": {
                                "class_name": "Zeros",
                                "config": {}
                            },
                            "gamma_initializer": {
                                "class_name": "Ones",
                                "config": {}
                            },
                            "moving_mean_initializer": {
                                "class_name": "Zeros",
                                "config": {}
                            },
                            "moving_variance_initializer": {
                                "class_name": "Ones",
                                "config": {}
                            },
                            "beta_regularizer": null,
                            "gamma_regularizer": null,
                            "beta_constraint": null,
                            "gamma_constraint": null
                        },
                        "name": "batch_normalization_210",
                        "inbound_nodes": [
                            [
                                [
                                    "conv2d_210",
                                    0,
                                    0,
                                    {}
                                ]
                            ]
                        ]
                    },
                    {
                        "class_name": "BatchNormalization",
                        "config": {
                            "name": "batch_normalization_211",
                            "trainable": true,
                            "dtype": "float32",
                            "axis": [
                                3
                            ],
                            "momentum": 0.9,
                            "epsilon": 0.001,
                            "center": true,
                            "scale": true,
                            "beta_initializer": {
                                "class_name": "Zeros",
                                "config": {}
                            },
                            "gamma_initializer": {
                                "class_name": "Ones",
                                "config": {}
                            },
                            "moving_mean_initializer": {
                                "class_name": "Zeros",
                                "config": {}
                            },
                            "moving_variance_initializer": {
                                "class_name": "Ones",
                                "config": {}
                            },
                            "beta_regularizer": null,
                            "gamma_regularizer": null,
                            "beta_constraint": null,
                            "gamma_constraint": null
                        },
                        "name": "batch_normalization_211",
                        "inbound_nodes": [
                            [
                                [
                                    "conv2d_211",
                                    0,
                                    0,
                                    {}
                                ]
                            ]
                        ]
                    },
                    {
                        "class_name": "Concatenate",
                        "config": {
                            "name": "concatenate_65",
                            "trainable": true,
                            "dtype": "float32",
                            "axis": -1
                        },
                        "name": "concatenate_65",
                        "inbound_nodes": [
                            [
                                [
                                    "batch_normalization_194",
                                    0,
                                    0,
                                    {}
                                ],
                                [
                                    "batch_normalization_195",
                                    0,
                                    0,
                                    {}
                                ]
                            ]
                        ]
                    },
                    {
                        "class_name": "Concatenate",
                        "config": {
                            "name": "concatenate_70",
                            "trainable": true,
                            "dtype": "float32",
                            "axis": -1
                        },
                        "name": "concatenate_70",
                        "inbound_nodes": [
                            [
                                [
                                    "batch_normalization_210",
                                    0,
                                    0,
                                    {}
                                ],
                                [
                                    "batch_normalization_211",
                                    0,
                                    0,
                                    {}
                                ]
                            ]
                        ]
                    },
                    {
                        "class_name": "MaxPooling2D",
                        "config": {
                            "name": "max_pooling2d_48",
                            "trainable": true,
                            "dtype": "float32",
                            "pool_size": [
                                2,
                                2
                            ],
                            "padding": "valid",
                            "strides": [
                                2,
                                2
                            ],
                            "data_format": "channels_last"
                        },
                        "name": "max_pooling2d_48",
                        "inbound_nodes": [
                            [
                                [
                                    "concatenate_65",
                                    0,
                                    0,
                                    {}
                                ]
                            ]
                        ]
                    },
                    {
                        "class_name": "MaxPooling2D",
                        "config": {
                            "name": "max_pooling2d_52",
                            "trainable": true,
                            "dtype": "float32",
                            "pool_size": [
                                2,
                                2
                            ],
                            "padding": "valid",
                            "strides": [
                                2,
                                2
                            ],
                            "data_format": "channels_last"
                        },
                        "name": "max_pooling2d_52",
                        "inbound_nodes": [
                            [
                                [
                                    "concatenate_70",
                                    0,
                                    0,
                                    {}
                                ]
                            ]
                        ]
                    },
                    {
                        "class_name": "Conv2D",
                        "config": {
                            "name": "conv2d_196",
                            "trainable": true,
                            "dtype": "float32",
                            "filters": 48,
                            "kernel_size": [
                                1,
                                1
                            ],
                            "strides": [
                                1,
                                1
                            ],
                            "padding": "same",
                            "data_format": "channels_last",
                            "dilation_rate": [
                                1,
                                1
                            ],
                            "groups": 1,
                            "activation": "relu",
                            "use_bias": true,
                            "kernel_initializer": {
                                "class_name": "GlorotUniform",
                                "config": {
                                    "seed": null
                                }
                            },
                            "bias_initializer": {
                                "class_name": "Zeros",
                                "config": {}
                            },
                            "kernel_regularizer": null,
                            "bias_regularizer": null,
                            "activity_regularizer": null,
                            "kernel_constraint": null,
                            "bias_constraint": null
                        },
                        "name": "conv2d_196",
                        "inbound_nodes": [
                            [
                                [
                                    "max_pooling2d_48",
                                    0,
                                    0,
                                    {}
                                ]
                            ]
                        ]
                    },
                    {
                        "class_name": "Conv2D",
                        "config": {
                            "name": "conv2d_212",
                            "trainable": true,
                            "dtype": "float32",
                            "filters": 48,
                            "kernel_size": [
                                1,
                                1
                            ],
                            "strides": [
                                1,
                                1
                            ],
                            "padding": "same",
                            "data_format": "channels_last",
                            "dilation_rate": [
                                1,
                                1
                            ],
                            "groups": 1,
                            "activation": "relu",
                            "use_bias": true,
                            "kernel_initializer": {
                                "class_name": "GlorotUniform",
                                "config": {
                                    "seed": null
                                }
                            },
                            "bias_initializer": {
                                "class_name": "Zeros",
                                "config": {}
                            },
                            "kernel_regularizer": null,
                            "bias_regularizer": null,
                            "activity_regularizer": null,
                            "kernel_constraint": null,
                            "bias_constraint": null
                        },
                        "name": "conv2d_212",
                        "inbound_nodes": [
                            [
                                [
                                    "max_pooling2d_52",
                                    0,
                                    0,
                                    {}
                                ]
                            ]
                        ]
                    },
                    {
                        "class_name": "BatchNormalization",
                        "config": {
                            "name": "batch_normalization_196",
                            "trainable": true,
                            "dtype": "float32",
                            "axis": [
                                3
                            ],
                            "momentum": 0.9,
                            "epsilon": 0.001,
                            "center": true,
                            "scale": true,
                            "beta_initializer": {
                                "class_name": "Zeros",
                                "config": {}
                            },
                            "gamma_initializer": {
                                "class_name": "Ones",
                                "config": {}
                            },
                            "moving_mean_initializer": {
                                "class_name": "Zeros",
                                "config": {}
                            },
                            "moving_variance_initializer": {
                                "class_name": "Ones",
                                "config": {}
                            },
                            "beta_regularizer": null,
                            "gamma_regularizer": null,
                            "beta_constraint": null,
                            "gamma_constraint": null
                        },
                        "name": "batch_normalization_196",
                        "inbound_nodes": [
                            [
                                [
                                    "conv2d_196",
                                    0,
                                    0,
                                    {}
                                ]
                            ]
                        ]
                    },
                    {
                        "class_name": "BatchNormalization",
                        "config": {
                            "name": "batch_normalization_212",
                            "trainable": true,
                            "dtype": "float32",
                            "axis": [
                                3
                            ],
                            "momentum": 0.9,
                            "epsilon": 0.001,
                            "center": true,
                            "scale": true,
                            "beta_initializer": {
                                "class_name": "Zeros",
                                "config": {}
                            },
                            "gamma_initializer": {
                                "class_name": "Ones",
                                "config": {}
                            },
                            "moving_mean_initializer": {
                                "class_name": "Zeros",
                                "config": {}
                            },
                            "moving_variance_initializer": {
                                "class_name": "Ones",
                                "config": {}
                            },
                            "beta_regularizer": null,
                            "gamma_regularizer": null,
                            "beta_constraint": null,
                            "gamma_constraint": null
                        },
                        "name": "batch_normalization_212",
                        "inbound_nodes": [
                            [
                                [
                                    "conv2d_212",
                                    0,
                                    0,
                                    {}
                                ]
                            ]
                        ]
                    },
                    {
                        "class_name": "Conv2D",
                        "config": {
                            "name": "conv2d_197",
                            "trainable": true,
                            "dtype": "float32",
                            "filters": 48,
                            "kernel_size": [
                                1,
                                1
                            ],
                            "strides": [
                                1,
                                1
                            ],
                            "padding": "same",
                            "data_format": "channels_last",
                            "dilation_rate": [
                                1,
                                1
                            ],
                            "groups": 1,
                            "activation": "relu",
                            "use_bias": true,
                            "kernel_initializer": {
                                "class_name": "GlorotUniform",
                                "config": {
                                    "seed": null
                                }
                            },
                            "bias_initializer": {
                                "class_name": "Zeros",
                                "config": {}
                            },
                            "kernel_regularizer": null,
                            "bias_regularizer": null,
                            "activity_regularizer": null,
                            "kernel_constraint": null,
                            "bias_constraint": null
                        },
                        "name": "conv2d_197",
                        "inbound_nodes": [
                            [
                                [
                                    "batch_normalization_196",
                                    0,
                                    0,
                                    {}
                                ]
                            ]
                        ]
                    },
                    {
                        "class_name": "Conv2D",
                        "config": {
                            "name": "conv2d_198",
                            "trainable": true,
                            "dtype": "float32",
                            "filters": 48,
                            "kernel_size": [
                                3,
                                3
                            ],
                            "strides": [
                                1,
                                1
                            ],
                            "padding": "same",
                            "data_format": "channels_last",
                            "dilation_rate": [
                                1,
                                1
                            ],
                            "groups": 1,
                            "activation": "relu",
                            "use_bias": true,
                            "kernel_initializer": {
                                "class_name": "GlorotUniform",
                                "config": {
                                    "seed": null
                                }
                            },
                            "bias_initializer": {
                                "class_name": "Zeros",
                                "config": {}
                            },
                            "kernel_regularizer": null,
                            "bias_regularizer": null,
                            "activity_regularizer": null,
                            "kernel_constraint": null,
                            "bias_constraint": null
                        },
                        "name": "conv2d_198",
                        "inbound_nodes": [
                            [
                                [
                                    "batch_normalization_196",
                                    0,
                                    0,
                                    {}
                                ]
                            ]
                        ]
                    },
                    {
                        "class_name": "Conv2D",
                        "config": {
                            "name": "conv2d_213",
                            "trainable": true,
                            "dtype": "float32",
                            "filters": 48,
                            "kernel_size": [
                                1,
                                1
                            ],
                            "strides": [
                                1,
                                1
                            ],
                            "padding": "same",
                            "data_format": "channels_last",
                            "dilation_rate": [
                                1,
                                1
                            ],
                            "groups": 1,
                            "activation": "relu",
                            "use_bias": true,
                            "kernel_initializer": {
                                "class_name": "GlorotUniform",
                                "config": {
                                    "seed": null
                                }
                            },
                            "bias_initializer": {
                                "class_name": "Zeros",
                                "config": {}
                            },
                            "kernel_regularizer": null,
                            "bias_regularizer": null,
                            "activity_regularizer": null,
                            "kernel_constraint": null,
                            "bias_constraint": null
                        },
                        "name": "conv2d_213",
                        "inbound_nodes": [
                            [
                                [
                                    "batch_normalization_212",
                                    0,
                                    0,
                                    {}
                                ]
                            ]
                        ]
                    },
                    {
                        "class_name": "Conv2D",
                        "config": {
                            "name": "conv2d_214",
                            "trainable": true,
                            "dtype": "float32",
                            "filters": 48,
                            "kernel_size": [
                                3,
                                3
                            ],
                            "strides": [
                                1,
                                1
                            ],
                            "padding": "same",
                            "data_format": "channels_last",
                            "dilation_rate": [
                                1,
                                1
                            ],
                            "groups": 1,
                            "activation": "relu",
                            "use_bias": true,
                            "kernel_initializer": {
                                "class_name": "GlorotUniform",
                                "config": {
                                    "seed": null
                                }
                            },
                            "bias_initializer": {
                                "class_name": "Zeros",
                                "config": {}
                            },
                            "kernel_regularizer": null,
                            "bias_regularizer": null,
                            "activity_regularizer": null,
                            "kernel_constraint": null,
                            "bias_constraint": null
                        },
                        "name": "conv2d_214",
                        "inbound_nodes": [
                            [
                                [
                                    "batch_normalization_212",
                                    0,
                                    0,
                                    {}
                                ]
                            ]
                        ]
                    },
                    {
                        "class_name": "BatchNormalization",
                        "config": {
                            "name": "batch_normalization_197",
                            "trainable": true,
                            "dtype": "float32",
                            "axis": [
                                3
                            ],
                            "momentum": 0.9,
                            "epsilon": 0.001,
                            "center": true,
                            "scale": true,
                            "beta_initializer": {
                                "class_name": "Zeros",
                                "config": {}
                            },
                            "gamma_initializer": {
                                "class_name": "Ones",
                                "config": {}
                            },
                            "moving_mean_initializer": {
                                "class_name": "Zeros",
                                "config": {}
                            },
                            "moving_variance_initializer": {
                                "class_name": "Ones",
                                "config": {}
                            },
                            "beta_regularizer": null,
                            "gamma_regularizer": null,
                            "beta_constraint": null,
                            "gamma_constraint": null
                        },
                        "name": "batch_normalization_197",
                        "inbound_nodes": [
                            [
                                [
                                    "conv2d_197",
                                    0,
                                    0,
                                    {}
                                ]
                            ]
                        ]
                    },
                    {
                        "class_name": "BatchNormalization",
                        "config": {
                            "name": "batch_normalization_198",
                            "trainable": true,
                            "dtype": "float32",
                            "axis": [
                                3
                            ],
                            "momentum": 0.9,
                            "epsilon": 0.001,
                            "center": true,
                            "scale": true,
                            "beta_initializer": {
                                "class_name": "Zeros",
                                "config": {}
                            },
                            "gamma_initializer": {
                                "class_name": "Ones",
                                "config": {}
                            },
                            "moving_mean_initializer": {
                                "class_name": "Zeros",
                                "config": {}
                            },
                            "moving_variance_initializer": {
                                "class_name": "Ones",
                                "config": {}
                            },
                            "beta_regularizer": null,
                            "gamma_regularizer": null,
                            "beta_constraint": null,
                            "gamma_constraint": null
                        },
                        "name": "batch_normalization_198",
                        "inbound_nodes": [
                            [
                                [
                                    "conv2d_198",
                                    0,
                                    0,
                                    {}
                                ]
                            ]
                        ]
                    },
                    {
                        "class_name": "BatchNormalization",
                        "config": {
                            "name": "batch_normalization_213",
                            "trainable": true,
                            "dtype": "float32",
                            "axis": [
                                3
                            ],
                            "momentum": 0.9,
                            "epsilon": 0.001,
                            "center": true,
                            "scale": true,
                            "beta_initializer": {
                                "class_name": "Zeros",
                                "config": {}
                            },
                            "gamma_initializer": {
                                "class_name": "Ones",
                                "config": {}
                            },
                            "moving_mean_initializer": {
                                "class_name": "Zeros",
                                "config": {}
                            },
                            "moving_variance_initializer": {
                                "class_name": "Ones",
                                "config": {}
                            },
                            "beta_regularizer": null,
                            "gamma_regularizer": null,
                            "beta_constraint": null,
                            "gamma_constraint": null
                        },
                        "name": "batch_normalization_213",
                        "inbound_nodes": [
                            [
                                [
                                    "conv2d_213",
                                    0,
                                    0,
                                    {}
                                ]
                            ]
                        ]
                    },
                    {
                        "class_name": "BatchNormalization",
                        "config": {
                            "name": "batch_normalization_214",
                            "trainable": true,
                            "dtype": "float32",
                            "axis": [
                                3
                            ],
                            "momentum": 0.9,
                            "epsilon": 0.001,
                            "center": true,
                            "scale": true,
                            "beta_initializer": {
                                "class_name": "Zeros",
                                "config": {}
                            },
                            "gamma_initializer": {
                                "class_name": "Ones",
                                "config": {}
                            },
                            "moving_mean_initializer": {
                                "class_name": "Zeros",
                                "config": {}
                            },
                            "moving_variance_initializer": {
                                "class_name": "Ones",
                                "config": {}
                            },
                            "beta_regularizer": null,
                            "gamma_regularizer": null,
                            "beta_constraint": null,
                            "gamma_constraint": null
                        },
                        "name": "batch_normalization_214",
                        "inbound_nodes": [
                            [
                                [
                                    "conv2d_214",
                                    0,
                                    0,
                                    {}
                                ]
                            ]
                        ]
                    },
                    {
                        "class_name": "Concatenate",
                        "config": {
                            "name": "concatenate_66",
                            "trainable": true,
                            "dtype": "float32",
                            "axis": -1
                        },
                        "name": "concatenate_66",
                        "inbound_nodes": [
                            [
                                [
                                    "batch_normalization_197",
                                    0,
                                    0,
                                    {}
                                ],
                                [
                                    "batch_normalization_198",
                                    0,
                                    0,
                                    {}
                                ]
                            ]
                        ]
                    },
                    {
                        "class_name": "Concatenate",
                        "config": {
                            "name": "concatenate_71",
                            "trainable": true,
                            "dtype": "float32",
                            "axis": -1
                        },
                        "name": "concatenate_71",
                        "inbound_nodes": [
                            [
                                [
                                    "batch_normalization_213",
                                    0,
                                    0,
                                    {}
                                ],
                                [
                                    "batch_normalization_214",
                                    0,
                                    0,
                                    {}
                                ]
                            ]
                        ]
                    },
                    {
                        "class_name": "MaxPooling2D",
                        "config": {
                            "name": "max_pooling2d_49",
                            "trainable": true,
                            "dtype": "float32",
                            "pool_size": [
                                2,
                                2
                            ],
                            "padding": "valid",
                            "strides": [
                                2,
                                2
                            ],
                            "data_format": "channels_last"
                        },
                        "name": "max_pooling2d_49",
                        "inbound_nodes": [
                            [
                                [
                                    "concatenate_66",
                                    0,
                                    0,
                                    {}
                                ]
                            ]
                        ]
                    },
                    {
                        "class_name": "MaxPooling2D",
                        "config": {
                            "name": "max_pooling2d_53",
                            "trainable": true,
                            "dtype": "float32",
                            "pool_size": [
                                2,
                                2
                            ],
                            "padding": "valid",
                            "strides": [
                                2,
                                2
                            ],
                            "data_format": "channels_last"
                        },
                        "name": "max_pooling2d_53",
                        "inbound_nodes": [
                            [
                                [
                                    "concatenate_71",
                                    0,
                                    0,
                                    {}
                                ]
                            ]
                        ]
                    },
                    {
                        "class_name": "Conv2D",
                        "config": {
                            "name": "conv2d_199",
                            "trainable": true,
                            "dtype": "float32",
                            "filters": 64,
                            "kernel_size": [
                                1,
                                1
                            ],
                            "strides": [
                                1,
                                1
                            ],
                            "padding": "same",
                            "data_format": "channels_last",
                            "dilation_rate": [
                                1,
                                1
                            ],
                            "groups": 1,
                            "activation": "relu",
                            "use_bias": true,
                            "kernel_initializer": {
                                "class_name": "GlorotUniform",
                                "config": {
                                    "seed": null
                                }
                            },
                            "bias_initializer": {
                                "class_name": "Zeros",
                                "config": {}
                            },
                            "kernel_regularizer": null,
                            "bias_regularizer": null,
                            "activity_regularizer": null,
                            "kernel_constraint": null,
                            "bias_constraint": null
                        },
                        "name": "conv2d_199",
                        "inbound_nodes": [
                            [
                                [
                                    "max_pooling2d_49",
                                    0,
                                    0,
                                    {}
                                ]
                            ]
                        ]
                    },
                    {
                        "class_name": "Conv2D",
                        "config": {
                            "name": "conv2d_215",
                            "trainable": true,
                            "dtype": "float32",
                            "filters": 64,
                            "kernel_size": [
                                1,
                                1
                            ],
                            "strides": [
                                1,
                                1
                            ],
                            "padding": "same",
                            "data_format": "channels_last",
                            "dilation_rate": [
                                1,
                                1
                            ],
                            "groups": 1,
                            "activation": "relu",
                            "use_bias": true,
                            "kernel_initializer": {
                                "class_name": "GlorotUniform",
                                "config": {
                                    "seed": null
                                }
                            },
                            "bias_initializer": {
                                "class_name": "Zeros",
                                "config": {}
                            },
                            "kernel_regularizer": null,
                            "bias_regularizer": null,
                            "activity_regularizer": null,
                            "kernel_constraint": null,
                            "bias_constraint": null
                        },
                        "name": "conv2d_215",
                        "inbound_nodes": [
                            [
                                [
                                    "max_pooling2d_53",
                                    0,
                                    0,
                                    {}
                                ]
                            ]
                        ]
                    },
                    {
                        "class_name": "BatchNormalization",
                        "config": {
                            "name": "batch_normalization_199",
                            "trainable": true,
                            "dtype": "float32",
                            "axis": [
                                3
                            ],
                            "momentum": 0.9,
                            "epsilon": 0.001,
                            "center": true,
                            "scale": true,
                            "beta_initializer": {
                                "class_name": "Zeros",
                                "config": {}
                            },
                            "gamma_initializer": {
                                "class_name": "Ones",
                                "config": {}
                            },
                            "moving_mean_initializer": {
                                "class_name": "Zeros",
                                "config": {}
                            },
                            "moving_variance_initializer": {
                                "class_name": "Ones",
                                "config": {}
                            },
                            "beta_regularizer": null,
                            "gamma_regularizer": null,
                            "beta_constraint": null,
                            "gamma_constraint": null
                        },
                        "name": "batch_normalization_199",
                        "inbound_nodes": [
                            [
                                [
                                    "conv2d_199",
                                    0,
                                    0,
                                    {}
                                ]
                            ]
                        ]
                    },
                    {
                        "class_name": "BatchNormalization",
                        "config": {
                            "name": "batch_normalization_215",
                            "trainable": true,
                            "dtype": "float32",
                            "axis": [
                                3
                            ],
                            "momentum": 0.9,
                            "epsilon": 0.001,
                            "center": true,
                            "scale": true,
                            "beta_initializer": {
                                "class_name": "Zeros",
                                "config": {}
                            },
                            "gamma_initializer": {
                                "class_name": "Ones",
                                "config": {}
                            },
                            "moving_mean_initializer": {
                                "class_name": "Zeros",
                                "config": {}
                            },
                            "moving_variance_initializer": {
                                "class_name": "Ones",
                                "config": {}
                            },
                            "beta_regularizer": null,
                            "gamma_regularizer": null,
                            "beta_constraint": null,
                            "gamma_constraint": null
                        },
                        "name": "batch_normalization_215",
                        "inbound_nodes": [
                            [
                                [
                                    "conv2d_215",
                                    0,
                                    0,
                                    {}
                                ]
                            ]
                        ]
                    },
                    {
                        "class_name": "Conv2D",
                        "config": {
                            "name": "conv2d_200",
                            "trainable": true,
                            "dtype": "float32",
                            "filters": 64,
                            "kernel_size": [
                                1,
                                1
                            ],
                            "strides": [
                                1,
                                1
                            ],
                            "padding": "same",
                            "data_format": "channels_last",
                            "dilation_rate": [
                                1,
                                1
                            ],
                            "groups": 1,
                            "activation": "relu",
                            "use_bias": true,
                            "kernel_initializer": {
                                "class_name": "GlorotUniform",
                                "config": {
                                    "seed": null
                                }
                            },
                            "bias_initializer": {
                                "class_name": "Zeros",
                                "config": {}
                            },
                            "kernel_regularizer": null,
                            "bias_regularizer": null,
                            "activity_regularizer": null,
                            "kernel_constraint": null,
                            "bias_constraint": null
                        },
                        "name": "conv2d_200",
                        "inbound_nodes": [
                            [
                                [
                                    "batch_normalization_199",
                                    0,
                                    0,
                                    {}
                                ]
                            ]
                        ]
                    },
                    {
                        "class_name": "Conv2D",
                        "config": {
                            "name": "conv2d_201",
                            "trainable": true,
                            "dtype": "float32",
                            "filters": 64,
                            "kernel_size": [
                                3,
                                3
                            ],
                            "strides": [
                                1,
                                1
                            ],
                            "padding": "same",
                            "data_format": "channels_last",
                            "dilation_rate": [
                                1,
                                1
                            ],
                            "groups": 1,
                            "activation": "relu",
                            "use_bias": true,
                            "kernel_initializer": {
                                "class_name": "GlorotUniform",
                                "config": {
                                    "seed": null
                                }
                            },
                            "bias_initializer": {
                                "class_name": "Zeros",
                                "config": {}
                            },
                            "kernel_regularizer": null,
                            "bias_regularizer": null,
                            "activity_regularizer": null,
                            "kernel_constraint": null,
                            "bias_constraint": null
                        },
                        "name": "conv2d_201",
                        "inbound_nodes": [
                            [
                                [
                                    "batch_normalization_199",
                                    0,
                                    0,
                                    {}
                                ]
                            ]
                        ]
                    },
                    {
                        "class_name": "Conv2D",
                        "config": {
                            "name": "conv2d_216",
                            "trainable": true,
                            "dtype": "float32",
                            "filters": 64,
                            "kernel_size": [
                                1,
                                1
                            ],
                            "strides": [
                                1,
                                1
                            ],
                            "padding": "same",
                            "data_format": "channels_last",
                            "dilation_rate": [
                                1,
                                1
                            ],
                            "groups": 1,
                            "activation": "relu",
                            "use_bias": true,
                            "kernel_initializer": {
                                "class_name": "GlorotUniform",
                                "config": {
                                    "seed": null
                                }
                            },
                            "bias_initializer": {
                                "class_name": "Zeros",
                                "config": {}
                            },
                            "kernel_regularizer": null,
                            "bias_regularizer": null,
                            "activity_regularizer": null,
                            "kernel_constraint": null,
                            "bias_constraint": null
                        },
                        "name": "conv2d_216",
                        "inbound_nodes": [
                            [
                                [
                                    "batch_normalization_215",
                                    0,
                                    0,
                                    {}
                                ]
                            ]
                        ]
                    },
                    {
                        "class_name": "Conv2D",
                        "config": {
                            "name": "conv2d_217",
                            "trainable": true,
                            "dtype": "float32",
                            "filters": 64,
                            "kernel_size": [
                                3,
                                3
                            ],
                            "strides": [
                                1,
                                1
                            ],
                            "padding": "same",
                            "data_format": "channels_last",
                            "dilation_rate": [
                                1,
                                1
                            ],
                            "groups": 1,
                            "activation": "relu",
                            "use_bias": true,
                            "kernel_initializer": {
                                "class_name": "GlorotUniform",
                                "config": {
                                    "seed": null
                                }
                            },
                            "bias_initializer": {
                                "class_name": "Zeros",
                                "config": {}
                            },
                            "kernel_regularizer": null,
                            "bias_regularizer": null,
                            "activity_regularizer": null,
                            "kernel_constraint": null,
                            "bias_constraint": null
                        },
                        "name": "conv2d_217",
                        "inbound_nodes": [
                            [
                                [
                                    "batch_normalization_215",
                                    0,
                                    0,
                                    {}
                                ]
                            ]
                        ]
                    },
                    {
                        "class_name": "BatchNormalization",
                        "config": {
                            "name": "batch_normalization_200",
                            "trainable": true,
                            "dtype": "float32",
                            "axis": [
                                3
                            ],
                            "momentum": 0.9,
                            "epsilon": 0.001,
                            "center": true,
                            "scale": true,
                            "beta_initializer": {
                                "class_name": "Zeros",
                                "config": {}
                            },
                            "gamma_initializer": {
                                "class_name": "Ones",
                                "config": {}
                            },
                            "moving_mean_initializer": {
                                "class_name": "Zeros",
                                "config": {}
                            },
                            "moving_variance_initializer": {
                                "class_name": "Ones",
                                "config": {}
                            },
                            "beta_regularizer": null,
                            "gamma_regularizer": null,
                            "beta_constraint": null,
                            "gamma_constraint": null
                        },
                        "name": "batch_normalization_200",
                        "inbound_nodes": [
                            [
                                [
                                    "conv2d_200",
                                    0,
                                    0,
                                    {}
                                ]
                            ]
                        ]
                    },
                    {
                        "class_name": "BatchNormalization",
                        "config": {
                            "name": "batch_normalization_201",
                            "trainable": true,
                            "dtype": "float32",
                            "axis": [
                                3
                            ],
                            "momentum": 0.9,
                            "epsilon": 0.001,
                            "center": true,
                            "scale": true,
                            "beta_initializer": {
                                "class_name": "Zeros",
                                "config": {}
                            },
                            "gamma_initializer": {
                                "class_name": "Ones",
                                "config": {}
                            },
                            "moving_mean_initializer": {
                                "class_name": "Zeros",
                                "config": {}
                            },
                            "moving_variance_initializer": {
                                "class_name": "Ones",
                                "config": {}
                            },
                            "beta_regularizer": null,
                            "gamma_regularizer": null,
                            "beta_constraint": null,
                            "gamma_constraint": null
                        },
                        "name": "batch_normalization_201",
                        "inbound_nodes": [
                            [
                                [
                                    "conv2d_201",
                                    0,
                                    0,
                                    {}
                                ]
                            ]
                        ]
                    },
                    {
                        "class_name": "BatchNormalization",
                        "config": {
                            "name": "batch_normalization_216",
                            "trainable": true,
                            "dtype": "float32",
                            "axis": [
                                3
                            ],
                            "momentum": 0.9,
                            "epsilon": 0.001,
                            "center": true,
                            "scale": true,
                            "beta_initializer": {
                                "class_name": "Zeros",
                                "config": {}
                            },
                            "gamma_initializer": {
                                "class_name": "Ones",
                                "config": {}
                            },
                            "moving_mean_initializer": {
                                "class_name": "Zeros",
                                "config": {}
                            },
                            "moving_variance_initializer": {
                                "class_name": "Ones",
                                "config": {}
                            },
                            "beta_regularizer": null,
                            "gamma_regularizer": null,
                            "beta_constraint": null,
                            "gamma_constraint": null
                        },
                        "name": "batch_normalization_216",
                        "inbound_nodes": [
                            [
                                [
                                    "conv2d_216",
                                    0,
                                    0,
                                    {}
                                ]
                            ]
                        ]
                    },
                    {
                        "class_name": "BatchNormalization",
                        "config": {
                            "name": "batch_normalization_217",
                            "trainable": true,
                            "dtype": "float32",
                            "axis": [
                                3
                            ],
                            "momentum": 0.9,
                            "epsilon": 0.001,
                            "center": true,
                            "scale": true,
                            "beta_initializer": {
                                "class_name": "Zeros",
                                "config": {}
                            },
                            "gamma_initializer": {
                                "class_name": "Ones",
                                "config": {}
                            },
                            "moving_mean_initializer": {
                                "class_name": "Zeros",
                                "config": {}
                            },
                            "moving_variance_initializer": {
                                "class_name": "Ones",
                                "config": {}
                            },
                            "beta_regularizer": null,
                            "gamma_regularizer": null,
                            "beta_constraint": null,
                            "gamma_constraint": null
                        },
                        "name": "batch_normalization_217",
                        "inbound_nodes": [
                            [
                                [
                                    "conv2d_217",
                                    0,
                                    0,
                                    {}
                                ]
                            ]
                        ]
                    },
                    {
                        "class_name": "Concatenate",
                        "config": {
                            "name": "concatenate_67",
                            "trainable": true,
                            "dtype": "float32",
                            "axis": -1
                        },
                        "name": "concatenate_67",
                        "inbound_nodes": [
                            [
                                [
                                    "batch_normalization_200",
                                    0,
                                    0,
                                    {}
                                ],
                                [
                                    "batch_normalization_201",
                                    0,
                                    0,
                                    {}
                                ]
                            ]
                        ]
                    },
                    {
                        "class_name": "Concatenate",
                        "config": {
                            "name": "concatenate_72",
                            "trainable": true,
                            "dtype": "float32",
                            "axis": -1
                        },
                        "name": "concatenate_72",
                        "inbound_nodes": [
                            [
                                [
                                    "batch_normalization_216",
                                    0,
                                    0,
                                    {}
                                ],
                                [
                                    "batch_normalization_217",
                                    0,
                                    0,
                                    {}
                                ]
                            ]
                        ]
                    },
                    {
                        "class_name": "MaxPooling2D",
                        "config": {
                            "name": "max_pooling2d_50",
                            "trainable": true,
                            "dtype": "float32",
                            "pool_size": [
                                2,
                                2
                            ],
                            "padding": "valid",
                            "strides": [
                                2,
                                2
                            ],
                            "data_format": "channels_last"
                        },
                        "name": "max_pooling2d_50",
                        "inbound_nodes": [
                            [
                                [
                                    "concatenate_67",
                                    0,
                                    0,
                                    {}
                                ]
                            ]
                        ]
                    },
                    {
                        "class_name": "MaxPooling2D",
                        "config": {
                            "name": "max_pooling2d_54",
                            "trainable": true,
                            "dtype": "float32",
                            "pool_size": [
                                2,
                                2
                            ],
                            "padding": "valid",
                            "strides": [
                                2,
                                2
                            ],
                            "data_format": "channels_last"
                        },
                        "name": "max_pooling2d_54",
                        "inbound_nodes": [
                            [
                                [
                                    "concatenate_72",
                                    0,
                                    0,
                                    {}
                                ]
                            ]
                        ]
                    },
                    {
                        "class_name": "Conv2D",
                        "config": {
                            "name": "conv2d_202",
                            "trainable": true,
                            "dtype": "float32",
                            "filters": 48,
                            "kernel_size": [
                                1,
                                1
                            ],
                            "strides": [
                                1,
                                1
                            ],
                            "padding": "same",
                            "data_format": "channels_last",
                            "dilation_rate": [
                                1,
                                1
                            ],
                            "groups": 1,
                            "activation": "relu",
                            "use_bias": true,
                            "kernel_initializer": {
                                "class_name": "GlorotUniform",
                                "config": {
                                    "seed": null
                                }
                            },
                            "bias_initializer": {
                                "class_name": "Zeros",
                                "config": {}
                            },
                            "kernel_regularizer": null,
                            "bias_regularizer": null,
                            "activity_regularizer": null,
                            "kernel_constraint": null,
                            "bias_constraint": null
                        },
                        "name": "conv2d_202",
                        "inbound_nodes": [
                            [
                                [
                                    "max_pooling2d_50",
                                    0,
                                    0,
                                    {}
                                ]
                            ]
                        ]
                    },
                    {
                        "class_name": "Conv2D",
                        "config": {
                            "name": "conv2d_218",
                            "trainable": true,
                            "dtype": "float32",
                            "filters": 48,
                            "kernel_size": [
                                1,
                                1
                            ],
                            "strides": [
                                1,
                                1
                            ],
                            "padding": "same",
                            "data_format": "channels_last",
                            "dilation_rate": [
                                1,
                                1
                            ],
                            "groups": 1,
                            "activation": "relu",
                            "use_bias": true,
                            "kernel_initializer": {
                                "class_name": "GlorotUniform",
                                "config": {
                                    "seed": null
                                }
                            },
                            "bias_initializer": {
                                "class_name": "Zeros",
                                "config": {}
                            },
                            "kernel_regularizer": null,
                            "bias_regularizer": null,
                            "activity_regularizer": null,
                            "kernel_constraint": null,
                            "bias_constraint": null
                        },
                        "name": "conv2d_218",
                        "inbound_nodes": [
                            [
                                [
                                    "max_pooling2d_54",
                                    0,
                                    0,
                                    {}
                                ]
                            ]
                        ]
                    },
                    {
                        "class_name": "BatchNormalization",
                        "config": {
                            "name": "batch_normalization_202",
                            "trainable": true,
                            "dtype": "float32",
                            "axis": [
                                3
                            ],
                            "momentum": 0.9,
                            "epsilon": 0.001,
                            "center": true,
                            "scale": true,
                            "beta_initializer": {
                                "class_name": "Zeros",
                                "config": {}
                            },
                            "gamma_initializer": {
                                "class_name": "Ones",
                                "config": {}
                            },
                            "moving_mean_initializer": {
                                "class_name": "Zeros",
                                "config": {}
                            },
                            "moving_variance_initializer": {
                                "class_name": "Ones",
                                "config": {}
                            },
                            "beta_regularizer": null,
                            "gamma_regularizer": null,
                            "beta_constraint": null,
                            "gamma_constraint": null
                        },
                        "name": "batch_normalization_202",
                        "inbound_nodes": [
                            [
                                [
                                    "conv2d_202",
                                    0,
                                    0,
                                    {}
                                ]
                            ]
                        ]
                    },
                    {
                        "class_name": "BatchNormalization",
                        "config": {
                            "name": "batch_normalization_218",
                            "trainable": true,
                            "dtype": "float32",
                            "axis": [
                                3
                            ],
                            "momentum": 0.9,
                            "epsilon": 0.001,
                            "center": true,
                            "scale": true,
                            "beta_initializer": {
                                "class_name": "Zeros",
                                "config": {}
                            },
                            "gamma_initializer": {
                                "class_name": "Ones",
                                "config": {}
                            },
                            "moving_mean_initializer": {
                                "class_name": "Zeros",
                                "config": {}
                            },
                            "moving_variance_initializer": {
                                "class_name": "Ones",
                                "config": {}
                            },
                            "beta_regularizer": null,
                            "gamma_regularizer": null,
                            "beta_constraint": null,
                            "gamma_constraint": null
                        },
                        "name": "batch_normalization_218",
                        "inbound_nodes": [
                            [
                                [
                                    "conv2d_218",
                                    0,
                                    0,
                                    {}
                                ]
                            ]
                        ]
                    },
                    {
                        "class_name": "Conv2D",
                        "config": {
                            "name": "conv2d_203",
                            "trainable": true,
                            "dtype": "float32",
                            "filters": 48,
                            "kernel_size": [
                                1,
                                1
                            ],
                            "strides": [
                                1,
                                1
                            ],
                            "padding": "same",
                            "data_format": "channels_last",
                            "dilation_rate": [
                                1,
                                1
                            ],
                            "groups": 1,
                            "activation": "relu",
                            "use_bias": true,
                            "kernel_initializer": {
                                "class_name": "GlorotUniform",
                                "config": {
                                    "seed": null
                                }
                            },
                            "bias_initializer": {
                                "class_name": "Zeros",
                                "config": {}
                            },
                            "kernel_regularizer": null,
                            "bias_regularizer": null,
                            "activity_regularizer": null,
                            "kernel_constraint": null,
                            "bias_constraint": null
                        },
                        "name": "conv2d_203",
                        "inbound_nodes": [
                            [
                                [
                                    "batch_normalization_202",
                                    0,
                                    0,
                                    {}
                                ]
                            ]
                        ]
                    },
                    {
                        "class_name": "Conv2D",
                        "config": {
                            "name": "conv2d_204",
                            "trainable": true,
                            "dtype": "float32",
                            "filters": 48,
                            "kernel_size": [
                                3,
                                3
                            ],
                            "strides": [
                                1,
                                1
                            ],
                            "padding": "same",
                            "data_format": "channels_last",
                            "dilation_rate": [
                                1,
                                1
                            ],
                            "groups": 1,
                            "activation": "relu",
                            "use_bias": true,
                            "kernel_initializer": {
                                "class_name": "GlorotUniform",
                                "config": {
                                    "seed": null
                                }
                            },
                            "bias_initializer": {
                                "class_name": "Zeros",
                                "config": {}
                            },
                            "kernel_regularizer": null,
                            "bias_regularizer": null,
                            "activity_regularizer": null,
                            "kernel_constraint": null,
                            "bias_constraint": null
                        },
                        "name": "conv2d_204",
                        "inbound_nodes": [
                            [
                                [
                                    "batch_normalization_202",
                                    0,
                                    0,
                                    {}
                                ]
                            ]
                        ]
                    },
                    {
                        "class_name": "Conv2D",
                        "config": {
                            "name": "conv2d_219",
                            "trainable": true,
                            "dtype": "float32",
                            "filters": 48,
                            "kernel_size": [
                                1,
                                1
                            ],
                            "strides": [
                                1,
                                1
                            ],
                            "padding": "same",
                            "data_format": "channels_last",
                            "dilation_rate": [
                                1,
                                1
                            ],
                            "groups": 1,
                            "activation": "relu",
                            "use_bias": true,
                            "kernel_initializer": {
                                "class_name": "GlorotUniform",
                                "config": {
                                    "seed": null
                                }
                            },
                            "bias_initializer": {
                                "class_name": "Zeros",
                                "config": {}
                            },
                            "kernel_regularizer": null,
                            "bias_regularizer": null,
                            "activity_regularizer": null,
                            "kernel_constraint": null,
                            "bias_constraint": null
                        },
                        "name": "conv2d_219",
                        "inbound_nodes": [
                            [
                                [
                                    "batch_normalization_218",
                                    0,
                                    0,
                                    {}
                                ]
                            ]
                        ]
                    },
                    {
                        "class_name": "Conv2D",
                        "config": {
                            "name": "conv2d_220",
                            "trainable": true,
                            "dtype": "float32",
                            "filters": 48,
                            "kernel_size": [
                                3,
                                3
                            ],
                            "strides": [
                                1,
                                1
                            ],
                            "padding": "same",
                            "data_format": "channels_last",
                            "dilation_rate": [
                                1,
                                1
                            ],
                            "groups": 1,
                            "activation": "relu",
                            "use_bias": true,
                            "kernel_initializer": {
                                "class_name": "GlorotUniform",
                                "config": {
                                    "seed": null
                                }
                            },
                            "bias_initializer": {
                                "class_name": "Zeros",
                                "config": {}
                            },
                            "kernel_regularizer": null,
                            "bias_regularizer": null,
                            "activity_regularizer": null,
                            "kernel_constraint": null,
                            "bias_constraint": null
                        },
                        "name": "conv2d_220",
                        "inbound_nodes": [
                            [
                                [
                                    "batch_normalization_218",
                                    0,
                                    0,
                                    {}
                                ]
                            ]
                        ]
                    },
                    {
                        "class_name": "BatchNormalization",
                        "config": {
                            "name": "batch_normalization_203",
                            "trainable": true,
                            "dtype": "float32",
                            "axis": [
                                3
                            ],
                            "momentum": 0.9,
                            "epsilon": 0.001,
                            "center": true,
                            "scale": true,
                            "beta_initializer": {
                                "class_name": "Zeros",
                                "config": {}
                            },
                            "gamma_initializer": {
                                "class_name": "Ones",
                                "config": {}
                            },
                            "moving_mean_initializer": {
                                "class_name": "Zeros",
                                "config": {}
                            },
                            "moving_variance_initializer": {
                                "class_name": "Ones",
                                "config": {}
                            },
                            "beta_regularizer": null,
                            "gamma_regularizer": null,
                            "beta_constraint": null,
                            "gamma_constraint": null
                        },
                        "name": "batch_normalization_203",
                        "inbound_nodes": [
                            [
                                [
                                    "conv2d_203",
                                    0,
                                    0,
                                    {}
                                ]
                            ]
                        ]
                    },
                    {
                        "class_name": "BatchNormalization",
                        "config": {
                            "name": "batch_normalization_204",
                            "trainable": true,
                            "dtype": "float32",
                            "axis": [
                                3
                            ],
                            "momentum": 0.9,
                            "epsilon": 0.001,
                            "center": true,
                            "scale": true,
                            "beta_initializer": {
                                "class_name": "Zeros",
                                "config": {}
                            },
                            "gamma_initializer": {
                                "class_name": "Ones",
                                "config": {}
                            },
                            "moving_mean_initializer": {
                                "class_name": "Zeros",
                                "config": {}
                            },
                            "moving_variance_initializer": {
                                "class_name": "Ones",
                                "config": {}
                            },
                            "beta_regularizer": null,
                            "gamma_regularizer": null,
                            "beta_constraint": null,
                            "gamma_constraint": null
                        },
                        "name": "batch_normalization_204",
                        "inbound_nodes": [
                            [
                                [
                                    "conv2d_204",
                                    0,
                                    0,
                                    {}
                                ]
                            ]
                        ]
                    },
                    {
                        "class_name": "BatchNormalization",
                        "config": {
                            "name": "batch_normalization_219",
                            "trainable": true,
                            "dtype": "float32",
                            "axis": [
                                3
                            ],
                            "momentum": 0.9,
                            "epsilon": 0.001,
                            "center": true,
                            "scale": true,
                            "beta_initializer": {
                                "class_name": "Zeros",
                                "config": {}
                            },
                            "gamma_initializer": {
                                "class_name": "Ones",
                                "config": {}
                            },
                            "moving_mean_initializer": {
                                "class_name": "Zeros",
                                "config": {}
                            },
                            "moving_variance_initializer": {
                                "class_name": "Ones",
                                "config": {}
                            },
                            "beta_regularizer": null,
                            "gamma_regularizer": null,
                            "beta_constraint": null,
                            "gamma_constraint": null
                        },
                        "name": "batch_normalization_219",
                        "inbound_nodes": [
                            [
                                [
                                    "conv2d_219",
                                    0,
                                    0,
                                    {}
                                ]
                            ]
                        ]
                    },
                    {
                        "class_name": "BatchNormalization",
                        "config": {
                            "name": "batch_normalization_220",
                            "trainable": true,
                            "dtype": "float32",
                            "axis": [
                                3
                            ],
                            "momentum": 0.9,
                            "epsilon": 0.001,
                            "center": true,
                            "scale": true,
                            "beta_initializer": {
                                "class_name": "Zeros",
                                "config": {}
                            },
                            "gamma_initializer": {
                                "class_name": "Ones",
                                "config": {}
                            },
                            "moving_mean_initializer": {
                                "class_name": "Zeros",
                                "config": {}
                            },
                            "moving_variance_initializer": {
                                "class_name": "Ones",
                                "config": {}
                            },
                            "beta_regularizer": null,
                            "gamma_regularizer": null,
                            "beta_constraint": null,
                            "gamma_constraint": null
                        },
                        "name": "batch_normalization_220",
                        "inbound_nodes": [
                            [
                                [
                                    "conv2d_220",
                                    0,
                                    0,
                                    {}
                                ]
                            ]
                        ]
                    },
                    {
                        "class_name": "Concatenate",
                        "config": {
                            "name": "concatenate_68",
                            "trainable": true,
                            "dtype": "float32",
                            "axis": -1
                        },
                        "name": "concatenate_68",
                        "inbound_nodes": [
                            [
                                [
                                    "batch_normalization_203",
                                    0,
                                    0,
                                    {}
                                ],
                                [
                                    "batch_normalization_204",
                                    0,
                                    0,
                                    {}
                                ]
                            ]
                        ]
                    },
                    {
                        "class_name": "Concatenate",
                        "config": {
                            "name": "concatenate_73",
                            "trainable": true,
                            "dtype": "float32",
                            "axis": -1
                        },
                        "name": "concatenate_73",
                        "inbound_nodes": [
                            [
                                [
                                    "batch_normalization_219",
                                    0,
                                    0,
                                    {}
                                ],
                                [
                                    "batch_normalization_220",
                                    0,
                                    0,
                                    {}
                                ]
                            ]
                        ]
                    },
                    {
                        "class_name": "MaxPooling2D",
                        "config": {
                            "name": "max_pooling2d_51",
                            "trainable": true,
                            "dtype": "float32",
                            "pool_size": [
                                2,
                                2
                            ],
                            "padding": "valid",
                            "strides": [
                                2,
                                2
                            ],
                            "data_format": "channels_last"
                        },
                        "name": "max_pooling2d_51",
                        "inbound_nodes": [
                            [
                                [
                                    "concatenate_68",
                                    0,
                                    0,
                                    {}
                                ]
                            ]
                        ]
                    },
                    {
                        "class_name": "MaxPooling2D",
                        "config": {
                            "name": "max_pooling2d_55",
                            "trainable": true,
                            "dtype": "float32",
                            "pool_size": [
                                2,
                                2
                            ],
                            "padding": "valid",
                            "strides": [
                                2,
                                2
                            ],
                            "data_format": "channels_last"
                        },
                        "name": "max_pooling2d_55",
                        "inbound_nodes": [
                            [
                                [
                                    "concatenate_73",
                                    0,
                                    0,
                                    {}
                                ]
                            ]
                        ]
                    },
                    {
                        "class_name": "Conv2D",
                        "config": {
                            "name": "conv2d_205",
                            "trainable": true,
                            "dtype": "float32",
                            "filters": 24,
                            "kernel_size": [
                                1,
                                1
                            ],
                            "strides": [
                                1,
                                1
                            ],
                            "padding": "same",
                            "data_format": "channels_last",
                            "dilation_rate": [
                                1,
                                1
                            ],
                            "groups": 1,
                            "activation": "relu",
                            "use_bias": true,
                            "kernel_initializer": {
                                "class_name": "GlorotUniform",
                                "config": {
                                    "seed": null
                                }
                            },
                            "bias_initializer": {
                                "class_name": "Zeros",
                                "config": {}
                            },
                            "kernel_regularizer": null,
                            "bias_regularizer": null,
                            "activity_regularizer": null,
                            "kernel_constraint": null,
                            "bias_constraint": null
                        },
                        "name": "conv2d_205",
                        "inbound_nodes": [
                            [
                                [
                                    "max_pooling2d_51",
                                    0,
                                    0,
                                    {}
                                ]
                            ]
                        ]
                    },
                    {
                        "class_name": "Conv2D",
                        "config": {
                            "name": "conv2d_221",
                            "trainable": true,
                            "dtype": "float32",
                            "filters": 24,
                            "kernel_size": [
                                1,
                                1
                            ],
                            "strides": [
                                1,
                                1
                            ],
                            "padding": "same",
                            "data_format": "channels_last",
                            "dilation_rate": [
                                1,
                                1
                            ],
                            "groups": 1,
                            "activation": "relu",
                            "use_bias": true,
                            "kernel_initializer": {
                                "class_name": "GlorotUniform",
                                "config": {
                                    "seed": null
                                }
                            },
                            "bias_initializer": {
                                "class_name": "Zeros",
                                "config": {}
                            },
                            "kernel_regularizer": null,
                            "bias_regularizer": null,
                            "activity_regularizer": null,
                            "kernel_constraint": null,
                            "bias_constraint": null
                        },
                        "name": "conv2d_221",
                        "inbound_nodes": [
                            [
                                [
                                    "max_pooling2d_55",
                                    0,
                                    0,
                                    {}
                                ]
                            ]
                        ]
                    },
                    {
                        "class_name": "BatchNormalization",
                        "config": {
                            "name": "batch_normalization_205",
                            "trainable": true,
                            "dtype": "float32",
                            "axis": [
                                3
                            ],
                            "momentum": 0.9,
                            "epsilon": 0.001,
                            "center": true,
                            "scale": true,
                            "beta_initializer": {
                                "class_name": "Zeros",
                                "config": {}
                            },
                            "gamma_initializer": {
                                "class_name": "Ones",
                                "config": {}
                            },
                            "moving_mean_initializer": {
                                "class_name": "Zeros",
                                "config": {}
                            },
                            "moving_variance_initializer": {
                                "class_name": "Ones",
                                "config": {}
                            },
                            "beta_regularizer": null,
                            "gamma_regularizer": null,
                            "beta_constraint": null,
                            "gamma_constraint": null
                        },
                        "name": "batch_normalization_205",
                        "inbound_nodes": [
                            [
                                [
                                    "conv2d_205",
                                    0,
                                    0,
                                    {}
                                ]
                            ]
                        ]
                    },
                    {
                        "class_name": "BatchNormalization",
                        "config": {
                            "name": "batch_normalization_221",
                            "trainable": true,
                            "dtype": "float32",
                            "axis": [
                                3
                            ],
                            "momentum": 0.9,
                            "epsilon": 0.001,
                            "center": true,
                            "scale": true,
                            "beta_initializer": {
                                "class_name": "Zeros",
                                "config": {}
                            },
                            "gamma_initializer": {
                                "class_name": "Ones",
                                "config": {}
                            },
                            "moving_mean_initializer": {
                                "class_name": "Zeros",
                                "config": {}
                            },
                            "moving_variance_initializer": {
                                "class_name": "Ones",
                                "config": {}
                            },
                            "beta_regularizer": null,
                            "gamma_regularizer": null,
                            "beta_constraint": null,
                            "gamma_constraint": null
                        },
                        "name": "batch_normalization_221",
                        "inbound_nodes": [
                            [
                                [
                                    "conv2d_221",
                                    0,
                                    0,
                                    {}
                                ]
                            ]
                        ]
                    },
                    {
                        "class_name": "Conv2D",
                        "config": {
                            "name": "conv2d_206",
                            "trainable": true,
                            "dtype": "float32",
                            "filters": 24,
                            "kernel_size": [
                                1,
                                1
                            ],
                            "strides": [
                                1,
                                1
                            ],
                            "padding": "same",
                            "data_format": "channels_last",
                            "dilation_rate": [
                                1,
                                1
                            ],
                            "groups": 1,
                            "activation": "relu",
                            "use_bias": true,
                            "kernel_initializer": {
                                "class_name": "GlorotUniform",
                                "config": {
                                    "seed": null
                                }
                            },
                            "bias_initializer": {
                                "class_name": "Zeros",
                                "config": {}
                            },
                            "kernel_regularizer": null,
                            "bias_regularizer": null,
                            "activity_regularizer": null,
                            "kernel_constraint": null,
                            "bias_constraint": null
                        },
                        "name": "conv2d_206",
                        "inbound_nodes": [
                            [
                                [
                                    "batch_normalization_205",
                                    0,
                                    0,
                                    {}
                                ]
                            ]
                        ]
                    },
                    {
                        "class_name": "Conv2D",
                        "config": {
                            "name": "conv2d_207",
                            "trainable": true,
                            "dtype": "float32",
                            "filters": 24,
                            "kernel_size": [
                                3,
                                3
                            ],
                            "strides": [
                                1,
                                1
                            ],
                            "padding": "same",
                            "data_format": "channels_last",
                            "dilation_rate": [
                                1,
                                1
                            ],
                            "groups": 1,
                            "activation": "relu",
                            "use_bias": true,
                            "kernel_initializer": {
                                "class_name": "GlorotUniform",
                                "config": {
                                    "seed": null
                                }
                            },
                            "bias_initializer": {
                                "class_name": "Zeros",
                                "config": {}
                            },
                            "kernel_regularizer": null,
                            "bias_regularizer": null,
                            "activity_regularizer": null,
                            "kernel_constraint": null,
                            "bias_constraint": null
                        },
                        "name": "conv2d_207",
                        "inbound_nodes": [
                            [
                                [
                                    "batch_normalization_205",
                                    0,
                                    0,
                                    {}
                                ]
                            ]
                        ]
                    },
                    {
                        "class_name": "Conv2D",
                        "config": {
                            "name": "conv2d_222",
                            "trainable": true,
                            "dtype": "float32",
                            "filters": 24,
                            "kernel_size": [
                                1,
                                1
                            ],
                            "strides": [
                                1,
                                1
                            ],
                            "padding": "same",
                            "data_format": "channels_last",
                            "dilation_rate": [
                                1,
                                1
                            ],
                            "groups": 1,
                            "activation": "relu",
                            "use_bias": true,
                            "kernel_initializer": {
                                "class_name": "GlorotUniform",
                                "config": {
                                    "seed": null
                                }
                            },
                            "bias_initializer": {
                                "class_name": "Zeros",
                                "config": {}
                            },
                            "kernel_regularizer": null,
                            "bias_regularizer": null,
                            "activity_regularizer": null,
                            "kernel_constraint": null,
                            "bias_constraint": null
                        },
                        "name": "conv2d_222",
                        "inbound_nodes": [
                            [
                                [
                                    "batch_normalization_221",
                                    0,
                                    0,
                                    {}
                                ]
                            ]
                        ]
                    },
                    {
                        "class_name": "Conv2D",
                        "config": {
                            "name": "conv2d_223",
                            "trainable": true,
                            "dtype": "float32",
                            "filters": 24,
                            "kernel_size": [
                                3,
                                3
                            ],
                            "strides": [
                                1,
                                1
                            ],
                            "padding": "same",
                            "data_format": "channels_last",
                            "dilation_rate": [
                                1,
                                1
                            ],
                            "groups": 1,
                            "activation": "relu",
                            "use_bias": true,
                            "kernel_initializer": {
                                "class_name": "GlorotUniform",
                                "config": {
                                    "seed": null
                                }
                            },
                            "bias_initializer": {
                                "class_name": "Zeros",
                                "config": {}
                            },
                            "kernel_regularizer": null,
                            "bias_regularizer": null,
                            "activity_regularizer": null,
                            "kernel_constraint": null,
                            "bias_constraint": null
                        },
                        "name": "conv2d_223",
                        "inbound_nodes": [
                            [
                                [
                                    "batch_normalization_221",
                                    0,
                                    0,
                                    {}
                                ]
                            ]
                        ]
                    },
                    {
                        "class_name": "BatchNormalization",
                        "config": {
                            "name": "batch_normalization_206",
                            "trainable": true,
                            "dtype": "float32",
                            "axis": [
                                3
                            ],
                            "momentum": 0.9,
                            "epsilon": 0.001,
                            "center": true,
                            "scale": true,
                            "beta_initializer": {
                                "class_name": "Zeros",
                                "config": {}
                            },
                            "gamma_initializer": {
                                "class_name": "Ones",
                                "config": {}
                            },
                            "moving_mean_initializer": {
                                "class_name": "Zeros",
                                "config": {}
                            },
                            "moving_variance_initializer": {
                                "class_name": "Ones",
                                "config": {}
                            },
                            "beta_regularizer": null,
                            "gamma_regularizer": null,
                            "beta_constraint": null,
                            "gamma_constraint": null
                        },
                        "name": "batch_normalization_206",
                        "inbound_nodes": [
                            [
                                [
                                    "conv2d_206",
                                    0,
                                    0,
                                    {}
                                ]
                            ]
                        ]
                    },
                    {
                        "class_name": "BatchNormalization",
                        "config": {
                            "name": "batch_normalization_207",
                            "trainable": true,
                            "dtype": "float32",
                            "axis": [
                                3
                            ],
                            "momentum": 0.9,
                            "epsilon": 0.001,
                            "center": true,
                            "scale": true,
                            "beta_initializer": {
                                "class_name": "Zeros",
                                "config": {}
                            },
                            "gamma_initializer": {
                                "class_name": "Ones",
                                "config": {}
                            },
                            "moving_mean_initializer": {
                                "class_name": "Zeros",
                                "config": {}
                            },
                            "moving_variance_initializer": {
                                "class_name": "Ones",
                                "config": {}
                            },
                            "beta_regularizer": null,
                            "gamma_regularizer": null,
                            "beta_constraint": null,
                            "gamma_constraint": null
                        },
                        "name": "batch_normalization_207",
                        "inbound_nodes": [
                            [
                                [
                                    "conv2d_207",
                                    0,
                                    0,
                                    {}
                                ]
                            ]
                        ]
                    },
                    {
                        "class_name": "BatchNormalization",
                        "config": {
                            "name": "batch_normalization_222",
                            "trainable": true,
                            "dtype": "float32",
                            "axis": [
                                3
                            ],
                            "momentum": 0.9,
                            "epsilon": 0.001,
                            "center": true,
                            "scale": true,
                            "beta_initializer": {
                                "class_name": "Zeros",
                                "config": {}
                            },
                            "gamma_initializer": {
                                "class_name": "Ones",
                                "config": {}
                            },
                            "moving_mean_initializer": {
                                "class_name": "Zeros",
                                "config": {}
                            },
                            "moving_variance_initializer": {
                                "class_name": "Ones",
                                "config": {}
                            },
                            "beta_regularizer": null,
                            "gamma_regularizer": null,
                            "beta_constraint": null,
                            "gamma_constraint": null
                        },
                        "name": "batch_normalization_222",
                        "inbound_nodes": [
                            [
                                [
                                    "conv2d_222",
                                    0,
                                    0,
                                    {}
                                ]
                            ]
                        ]
                    },
                    {
                        "class_name": "BatchNormalization",
…
                                    "seed": null
                                }
                            },
                            "bias_initializer": {
                                "class_name": "Zeros",
                                "config": {}
                            },
                            "kernel_regularizer": null,
                            "bias_regularizer": null,
                            "activity_regularizer": null,
                            "kernel_constraint": null,
                            "bias_constraint": null
                        },
                        "name": "dense_24",
                        "inbound_nodes": [
                            [
                                [
                                    "concatenate_75",
                                    0,
                                    0,
                                    {}
                                ]
                            ]
                        ]
                    },
                    {
                        "class_name": "Dropout",
                        "config": {
                            "name": "dropout_5",
                            "trainable": true,
                            "dtype": "float32",
                            "rate": 0.25,
                            "noise_shape": null,
                            "seed": null
                        },
                        "name": "dropout_5",
                        "inbound_nodes": [
                            [
                                [
                                    "dense_24",
                                    0,
                                    0,
                                    {}
                                ]
                            ]
                        ]
                    },
                    {
                        "class_name": "Dense",
                        "config": {
                            "name": "dense_25",
                            "trainable": true,
                            "dtype": "float32",
                            "units": 2,
                            "activation": "linear",
                            "use_bias": true,
                            "kernel_initializer": {
                                "class_name": "GlorotUniform",
                                "config": {
                                    "seed": null
                                }
                            },
                            "bias_initializer": {
                                "class_name": "Zeros",
                                "config": {}
                            },
                            "kernel_regularizer": null,
                            "bias_regularizer": null,
                            "activity_regularizer": null,
                            "kernel_constraint": null,
                            "bias_constraint": null
                        },
                        "name": "dense_25",
                        "inbound_nodes": [
                            [
                                [
                                    "dropout_5",
                                    0,
                                    0,
                                    {}
                                ]
                            ]
                        ]
                    }
                ],
                "input_layers": [
                    [
                        "input_13",
                        0,
                        0
                    ],
                    [
                        "input_14",
                        0,
                        0
                    ]
                ],
                "output_layers": [
                    [
                        "dense_25",
                        0,
                        0
                    ]
                ]
            }
        }
    },
    "weightsManifest": [
        {
            "paths": [
                "group1-shard1of1.bin"
            ],
            "weights": [
                {
                    "name": "batch_normalization_192/gamma",
                    "shape": [
                        32
                    ],
                    "dtype": "float32"
                },
                {
                    "name": "batch_normalization_192/beta",
                    "shape": [
                        32
                    ],
                    "dtype": "float32"
                },
                {
                    "name": "batch_normalization_192/moving_mean",
                    "shape": [
                        32
                    ],
                    "dtype": "float32"
                },
                {
                    "name": "batch_normalization_192/moving_variance",
                    "shape": [
                        32
                    ],
                    "dtype": "float32"
                },
                {
                    "name": "batch_normalization_193/gamma",
                    "shape": [
                        24
                    ],
                    "dtype": "float32"
                },
                {
                    "name": "batch_normalization_193/beta",
                    "shape": [
                        24
                    ],
                    "dtype": "float32"
                },
                {
                    "name": "batch_normalization_193/moving_mean",
                    "shape": [
                        24
                    ],
                    "dtype": "float32"
                },
                {
                    "name": "batch_normalization_193/moving_variance",
                    "shape": [
                        24
                    ],
                    "dtype": "float32"
                },
                {
                    "name": "batch_normalization_194/gamma",
                    "shape": [
                        24
                    ],
                    "dtype": "float32"
                },
                {
                    "name": "batch_normalization_194/beta",
                    "shape": [
                        24
                    ],
                    "dtype": "float32"
                },
                {
                    "name": "batch_normalization_194/moving_mean",
                    "shape": [
                        24
                    ],
                    "dtype": "float32"
                },
                {
                    "name": "batch_normalization_194/moving_variance",
                    "shape": [
                        24
                    ],
                    "dtype": "float32"
                },
                {
                    "name": "batch_normalization_195/gamma",
                    "shape": [
                        24
                    ],
                    "dtype": "float32"
                },
                {
                    "name": "batch_normalization_195/beta",
                    "shape": [
                        24
                    ],
                    "dtype": "float32"
                },
                {
                    "name": "batch_normalization_195/moving_mean",
                    "shape": [
                        24
                    ],
                    "dtype": "float32"
                },
                {
                    "name": "batch_normalization_195/moving_variance",
                    "shape": [
                        24
                    ],
                    "dtype": "float32"
                },
                {
                    "name": "batch_normalization_196/gamma",
                    "shape": [
                        48
                    ],
                    "dtype": "float32"
                },
                {
                    "name": "batch_normalization_196/beta",
                    "shape": [
                        48
                    ],
                    "dtype": "float32"
                },
                {
                    "name": "batch_normalization_196/moving_mean",
                    "shape": [
                        48
                    ],
                    "dtype": "float32"
                },
                {
                    "name": "batch_normalization_196/moving_variance",
                    "shape": [
                        48
                    ],
                    "dtype": "float32"
                },
                {
                    "name": "batch_normalization_197/gamma",
                    "shape": [
                        48
                    ],
                    "dtype": "float32"
                },
                {
                    "name": "batch_normalization_197/beta",
                    "shape": [
                        48
                    ],
                    "dtype": "float32"
                },
                {
                    "name": "batch_normalization_197/moving_mean",
                    "shape": [
                        48
                    ],
                    "dtype": "float32"
                },
                {
                    "name": "batch_normalization_197/moving_variance",
                    "shape": [
                        48
                    ],
                    "dtype": "float32"
                },
                {
                    "name": "batch_normalization_198/gamma",
                    "shape": [
                        48
                    ],
                    "dtype": "float32"
                },
                {
                    "name": "batch_normalization_198/beta",
                    "shape": [
                        48
                    ],
                    "dtype": "float32"
                },
                {
                    "name": "batch_normalization_198/moving_mean",
                    "shape": [
                        48
                    ],
                    "dtype": "float32"
                },
                {
                    "name": "batch_normalization_198/moving_variance",
                    "shape": [
                        48
                    ],
                    "dtype": "float32"
                },
                {
                    "name": "batch_normalization_199/gamma",
                    "shape": [
                        64
                    ],
                    "dtype": "float32"
                },
                {
                    "name": "batch_normalization_199/beta",
                    "shape": [
                        64
                    ],
                    "dtype": "float32"
                },
                {
                    "name": "batch_normalization_199/moving_mean",
                    "shape": [
                        64
                    ],
                    "dtype": "float32"
                },
                {
                    "name": "batch_normalization_199/moving_variance",
                    "shape": [
                        64
                    ],
                    "dtype": "float32"
                },
                {
                    "name": "batch_normalization_200/gamma",
                    "shape": [
                        64
                    ],
                    "dtype": "float32"
                },
                {
                    "name": "batch_normalization_200/beta",
                    "shape": [
                        64
                    ],
                    "dtype": "float32"
                },
                {
                    "name": "batch_normalization_200/moving_mean",
                    "shape": [
                        64
                    ],
                    "dtype": "float32"
                },
                {
                    "name": "batch_normalization_200/moving_variance",
                    "shape": [
                        64
                    ],
                    "dtype": "float32"
                },
                {
                    "name": "batch_normalization_201/gamma",
                    "shape": [
                        64
                    ],
                    "dtype": "float32"
                },
                {
                    "name": "batch_normalization_201/beta",
                    "shape": [
                        64
                    ],
                    "dtype": "float32"
                },
                {
                    "name": "batch_normalization_201/moving_mean",
                    "shape": [
                        64
                    ],
                    "dtype": "float32"
                },
                {
                    "name": "batch_normalization_201/moving_variance",
                    "shape": [
                        64
                    ],
                    "dtype": "float32"
                },
                {
                    "name": "batch_normalization_202/gamma",
                    "shape": [
                        48
                    ],
                    "dtype": "float32"
                },
                {
                    "name": "batch_normalization_202/beta",
                    "shape": [
                        48
                    ],
                    "dtype": "float32"
                },
                {
                    "name": "batch_normalization_202/moving_mean",
                    "shape": [
                        48
                    ],
                    "dtype": "float32"
                },
                {
                    "name": "batch_normalization_202/moving_variance",
                    "shape": [
                        48
                    ],
                    "dtype": "float32"
                },
                {
                    "name": "batch_normalization_203/gamma",
                    "shape": [
                        48
                    ],
                    "dtype": "float32"
                },
                {
                    "name": "batch_normalization_203/beta",
                    "shape": [
                        48
                    ],
                    "dtype": "float32"
                },
                {
                    "name": "batch_normalization_203/moving_mean",
                    "shape": [
                        48
                    ],
                    "dtype": "float32"
                },
                {
                    "name": "batch_normalization_203/moving_variance",
                    "shape": [
                        48
                    ],
                    "dtype": "float32"
                },
                {
                    "name": "batch_normalization_204/gamma",
                    "shape": [
                        48
                    ],
                    "dtype": "float32"
                },
                {
                    "name": "batch_normalization_204/beta",
                    "shape": [
                        48
                    ],
                    "dtype": "float32"
                },
                {
                    "name": "batch_normalization_204/moving_mean",
                    "shape": [
                        48
                    ],
                    "dtype": "float32"
                },
                {
                    "name": "batch_normalization_204/moving_variance",
                    "shape": [
                        48
                    ],
                    "dtype": "float32"
                },
                {
                    "name": "batch_normalization_205/gamma",
                    "shape": [
                        24
                    ],
                    "dtype": "float32"
                },
                {
                    "name": "batch_normalization_205/beta",
                    "shape": [
                        24
                    ],
                    "dtype": "float32"
                },
                {
                    "name": "batch_normalization_205/moving_mean",
                    "shape": [
                        24
                    ],
                    "dtype": "float32"
                },
                {
                    "name": "batch_normalization_205/moving_variance",
                    "shape": [
                        24
                    ],
                    "dtype": "float32"
                },
                {
                    "name": "batch_normalization_206/gamma",
                    "shape": [
                        24
                    ],
                    "dtype": "float32"
                },
                {
                    "name": "batch_normalization_206/beta",
                    "shape": [
                        24
                    ],
                    "dtype": "float32"
                },
                {
                    "name": "batch_normalization_206/moving_mean",
                    "shape": [
                        24
                    ],
                    "dtype": "float32"
                },
                {
                    "name": "batch_normalization_206/moving_variance",
                    "shape": [
                        24
                    ],
                    "dtype": "float32"
                },
                {
                    "name": "batch_normalization_207/gamma",
                    "shape": [
                        24
                    ],
                    "dtype": "float32"
                },
                {
                    "name": "batch_normalization_207/beta",
                    "shape": [
                        24
                    ],
                    "dtype": "float32"
                },
                {
                    "name": "batch_normalization_207/moving_mean",
                    "shape": [
                        24
                    ],
                    "dtype": "float32"
                },
                {
                    "name": "batch_normalization_207/moving_variance",
                    "shape": [
                        24
                    ],
                    "dtype": "float32"
                },
                {
                    "name": "batch_normalization_208/gamma",
                    "shape": [
                        32
                    ],
                    "dtype": "float32"
                },
                {
                    "name": "batch_normalization_208/beta",
                    "shape": [
                        32
                    ],
                    "dtype": "float32"
                },
                {
                    "name": "batch_normalization_208/moving_mean",
                    "shape": [
                        32
                    ],
                    "dtype": "float32"
                },
                {
                    "name": "batch_normalization_208/moving_variance",
                    "shape": [
                        32
                    ],
                    "dtype": "float32"
                },
                {
                    "name": "batch_normalization_209/gamma",
                    "shape": [
                        24
                    ],
                    "dtype": "float32"
                },
                {
                    "name": "batch_normalization_209/beta",
                    "shape": [
                        24
                    ],
                    "dtype": "float32"
                },
                {
                    "name": "batch_normalization_209/moving_mean",
                    "shape": [
                        24
                    ],
                    "dtype": "float32"
                },
                {
                    "name": "batch_normalization_209/moving_variance",
                    "shape": [
                        24
                    ],
                    "dtype": "float32"
                },
                {
                    "name": "batch_normalization_210/gamma",
                    "shape": [
                        24
                    ],
                    "dtype": "float32"
                },
                {
                    "name": "batch_normalization_210/beta",
                    "shape": [
                        24
                    ],
                    "dtype": "float32"
                },
                {
                    "name": "batch_normalization_210/moving_mean",
                    "shape": [
                        24
                    ],
                    "dtype": "float32"
                },
                {
                    "name": "batch_normalization_210/moving_variance",
                    "shape": [
                        24
                    ],
                    "dtype": "float32"
                },
                {
                    "name": "batch_normalization_211/gamma",
                    "shape": [
                        24
                    ],
                    "dtype": "float32"
                },
                {
                    "name": "batch_normalization_211/beta",
                    "shape": [
                        24
                    ],
                    "dtype": "float32"
                },
                {
                    "name": "batch_normalization_211/moving_mean",
                    "shape": [
                        24
                    ],
                    "dtype": "float32"
                },
                {
                    "name": "batch_normalization_211/moving_variance",
                    "shape": [
                        24
                    ],
                    "dtype": "float32"
                },
                {
                    "name": "batch_normalization_212/gamma",
                    "shape": [
                        48
                    ],
                    "dtype": "float32"
                },
                {
                    "name": "batch_normalization_212/beta",
                    "shape": [
                        48
                    ],
                    "dtype": "float32"
                },
                {
                    "name": "batch_normalization_212/moving_mean",
                    "shape": [
                        48
                    ],
                    "dtype": "float32"
                },
                {
                    "name": "batch_normalization_212/moving_variance",
                    "shape": [
                        48
                    ],
                    "dtype": "float32"
                },
                {
                    "name": "batch_normalization_213/gamma",
                    "shape": [
                        48
                    ],
                    "dtype": "float32"
                },
                {
                    "name": "batch_normalization_213/beta",
                    "shape": [
                        48
                    ],
                    "dtype": "float32"
                },
                {
                    "name": "batch_normalization_213/moving_mean",
                    "shape": [
                        48
                    ],
                    "dtype": "float32"
                },
                {
                    "name": "batch_normalization_213/moving_variance",
                    "shape": [
                        48
                    ],
                    "dtype": "float32"
                },
                {
                    "name": "batch_normalization_214/gamma",
                    "shape": [
                        48
                    ],
                    "dtype": "float32"
                },
                {
                    "name": "batch_normalization_214/beta",
                    "shape": [
                        48
                    ],
                    "dtype": "float32"
                },
                {
                    "name": "batch_normalization_214/moving_mean",
                    "shape": [
                        48
                    ],
                    "dtype": "float32"
                },
                {
                    "name": "batch_normalization_214/moving_variance",
                    "shape": [
                        48
                    ],
                    "dtype": "float32"
                },
                {
                    "name": "batch_normalization_215/gamma",
                    "shape": [
                        64
                    ],
                    "dtype": "float32"
                },
                {
                    "name": "batch_normalization_215/beta",
                    "shape": [
                        64
                    ],
                    "dtype": "float32"
                },
                {
                    "name": "batch_normalization_215/moving_mean",
                    "shape": [
                        64
                    ],
                    "dtype": "float32"
                },
                {
                    "name": "batch_normalization_215/moving_variance",
                    "shape": [
                        64
                    ],
                    "dtype": "float32"
                },
                {
                    "name": "batch_normalization_216/gamma",
                    "shape": [
                        64
                    ],
                    "dtype": "float32"
                },
                {
                    "name": "batch_normalization_216/beta",
                    "shape": [
                        64
                    ],
                    "dtype": "float32"
                },
                {
                    "name": "batch_normalization_216/moving_mean",
                    "shape": [
                        64
                    ],
                    "dtype": "float32"
                },
                {
                    "name": "batch_normalization_216/moving_variance",
                    "shape": [
                        64
                    ],
                    "dtype": "float32"
                },
                {
                    "name": "batch_normalization_217/gamma",
                    "shape": [
                        64
                    ],
                    "dtype": "float32"
                },
                {
                    "name": "batch_normalization_217/beta",
                    "shape": [
                        64
                    ],
                    "dtype": "float32"
                },
                {
                    "name": "batch_normalization_217/moving_mean",
                    "shape": [
                        64
                    ],
                    "dtype": "float32"
                },
                {
                    "name": "batch_normalization_217/moving_variance",
                    "shape": [
                        64
                    ],
                    "dtype": "float32"
                },
                {
                    "name": "batch_normalization_218/gamma",
                    "shape": [
                        48
                    ],
                    "dtype": "float32"
                },
                {
                    "name": "batch_normalization_218/beta",
                    "shape": [
                        48
                    ],
                    "dtype": "float32"
                },
                {
                    "name": "batch_normalization_218/moving_mean",
                    "shape": [
                        48
                    ],
                    "dtype": "float32"
                },
                {
                    "name": "batch_normalization_218/moving_variance",
                    "shape": [
                        48
                    ],
                    "dtype": "float32"
                },
                {
                    "name": "batch_normalization_219/gamma",
                    "shape": [
                        48
                    ],
                    "dtype": "float32"
                },
                {
                    "name": "batch_normalization_219/beta",
                    "shape": [
                        48
                    ],
                    "dtype": "float32"
                },
                {
                    "name": "batch_normalization_219/moving_mean",
                    "shape": [
                        48
                    ],
                    "dtype": "float32"
                },
                {
                    "name": "batch_normalization_219/moving_variance",
                    "shape": [
                        48
                    ],
                    "dtype": "float32"
                },
                {
                    "name": "batch_normalization_220/gamma",
                    "shape": [
                        48
                    ],
                    "dtype": "float32"
                },
                {
                    "name": "batch_normalization_220/beta",
                    "shape": [
                        48
                    ],
                    "dtype": "float32"
                },
                {
                    "name": "batch_normalization_220/moving_mean",
                    "shape": [
                        48
                    ],
                    "dtype": "float32"
                },
                {
                    "name": "batch_normalization_220/moving_variance",
                    "shape": [
                        48
                    ],
                    "dtype": "float32"
                },
                {
                    "name": "batch_normalization_221/gamma",
                    "shape": [
                        24
                    ],
                    "dtype": "float32"
                },
                {
                    "name": "batch_normalization_221/beta",
                    "shape": [
                        24
                    ],
                    "dtype": "float32"
                },
                {
                    "name": "batch_normalization_221/moving_mean",
                    "shape": [
                        24
                    ],
                    "dtype": "float32"
                },
                {
                    "name": "batch_normalization_221/moving_variance",
                    "shape": [
                        24
                    ],
                    "dtype": "float32"
                },
                {
                    "name": "batch_normalization_222/gamma",
                    "shape": [
                        24
                    ],
                    "dtype": "float32"
                },
                {
                    "name": "batch_normalization_222/beta",
                    "shape": [
                        24
                    ],
                    "dtype": "float32"
                },
                {
                    "name": "batch_normalization_222/moving_mean",
                    "shape": [
                        24
                    ],
                    "dtype": "float32"
                },
                {
                    "name": "batch_normalization_222/moving_variance",
                    "shape": [
                        24
                    ],
                    "dtype": "float32"
                },
                {
                    "name": "batch_normalization_223/gamma",
                    "shape": [
                        24
                    ],
                    "dtype": "float32"
                },
                {
                    "name": "batch_normalization_223/beta",
                    "shape": [
                        24
                    ],
                    "dtype": "float32"
                },
                {
                    "name": "batch_normalization_223/moving_mean",
                    "shape": [
                        24
                    ],
                    "dtype": "float32"
                },
                {
                    "name": "batch_normalization_223/moving_variance",
                    "shape": [
                        24
                    ],
                    "dtype": "float32"
                },
                {
                    "name": "conv2d_192/kernel",
                    "shape": [
                        3,
                        3,
                        3,
                        32
                    ],
                    "dtype": "float32"
                },
                {
                    "name": "conv2d_192/bias",
                    "shape": [
                        32
                    ],
                    "dtype": "float32"
                },
                {
                    "name": "conv2d_193/kernel",
                    "shape": [
                        1,
                        1,
                        32,
                        24
                    ],
                    "dtype": "float32"
                },
                {
                    "name": "conv2d_193/bias",
                    "shape": [
                        24
                    ],
                    "dtype": "float32"
                },
                {
                    "name": "conv2d_194/kernel",
                    "shape": [
                        1,
                        1,
                        24,
                        24
                    ],
                    "dtype": "float32"
                },
                {
                    "name": "conv2d_194/bias",
                    "shape": [
                        24
                    ],
                    "dtype": "float32"
                },
                {
                    "name": "conv2d_195/kernel",
                    "shape": [
                        3,
                        3,
                        24,
                        24
                    ],
                    "dtype": "float32"
                },
                {
                    "name": "conv2d_195/bias",
                    "shape": [
                        24
                    ],
                    "dtype": "float32"
                },
                {
                    "name": "conv2d_196/kernel",
                    "shape": [
                        1,
                        1,
                        48,
                        48
                    ],
                    "dtype": "float32"
                },
                {
                    "name": "conv2d_196/bias",
                    "shape": [
                        48
                    ],
                    "dtype": "float32"
                },
                {
                    "name": "conv2d_197/kernel",
                    "shape": [
                        1,
                        1,
                        48,
                        48
                    ],
                    "dtype": "float32"
                },
                {
                    "name": "conv2d_197/bias",
                    "shape": [
                        48
                    ],
                    "dtype": "float32"
                },
                {
                    "name": "conv2d_198/kernel",
                    "shape": [
                        3,
                        3,
                        48,
                        48
                    ],
                    "dtype": "float32"
                },
                {
                    "name": "conv2d_198/bias",
                    "shape": [
                        48
                    ],
                    "dtype": "float32"
                },
                {
                    "name": "conv2d_199/kernel",
                    "shape": [
                        1,
                        1,
                        96,
                        64
                    ],
                    "dtype": "float32"
                },
                {
                    "name": "conv2d_199/bias",
                    "shape": [
                        64
                    ],
                    "dtype": "float32"
                },
                {
                    "name": "conv2d_200/kernel",
                    "shape": [
                        1,
                        1,
                        64,
                        64
                    ],
                    "dtype": "float32"
                },
                {
                    "name": "conv2d_200/bias",
                    "shape": [
                        64
                    ],
                    "dtype": "float32"
                },
                {
                    "name": "conv2d_201/kernel",
                    "shape": [
                        3,
                        3,
                        64,
                        64
                    ],
                    "dtype": "float32"
                },
                {
                    "name": "conv2d_201/bias",
                    "shape": [
                        64
                    ],
                    "dtype": "float32"
                },
                {
                    "name": "conv2d_202/kernel",
                    "shape": [
                        1,
                        1,
                        128,
                        48
                    ],
                    "dtype": "float32"
                },
                {
                    "name": "conv2d_202/bias",
                    "shape": [
                        48
                    ],
                    "dtype": "float32"
                },
                {
                    "name": "conv2d_203/kernel",
                    "shape": [
                        1,
                        1,
                        48,
                        48
                    ],
                    "dtype": "float32"
                },
                {
                    "name": "conv2d_203/bias",
                    "shape": [
                        48
                    ],
                    "dtype": "float32"
                },
                {
                    "name": "conv2d_204/kernel",
                    "shape": [
                        3,
                        3,
                        48,
                        48
                    ],
                    "dtype": "float32"
                },
                {
                    "name": "conv2d_204/bias",
                    "shape": [
                        48
                    ],
                    "dtype": "float32"
                },
                {
                    "name": "conv2d_205/kernel",
                    "shape": [
                        1,
                        1,
                        96,
                        24
                    ],
                    "dtype": "float32"
                },
                {
                    "name": "conv2d_205/bias",
                    "shape": [
                        24
                    ],
                    "dtype": "float32"
                },
                {
                    "name": "conv2d_206/kernel",
                    "shape": [
                        1,
                        1,
                        24,
                        24
                    ],
                    "dtype": "float32"
                },
                {
                    "name": "conv2d_206/bias",
                    "shape": [
                        24
                    ],
                    "dtype": "float32"
                },
                {
                    "name": "conv2d_207/kernel",
                    "shape": [
                        3,
                        3,
                        24,
                        24
                    ],
                    "dtype": "float32"
                },
                {
                    "name": "conv2d_207/bias",
                    "shape": [
                        24
                    ],
                    "dtype": "float32"
                },
                {
                    "name": "conv2d_208/kernel",
                    "shape": [
                        3,
                        3,
                        3,
                        32
                    ],
                    "dtype": "float32"
                },
                {
                    "name": "conv2d_208/bias",
                    "shape": [
                        32
                    ],
                    "dtype": "float32"
                },
                {
                    "name": "conv2d_209/kernel",
                    "shape": [
                        1,
                        1,
                        32,
                        24
                    ],
                    "dtype": "float32"
                },
                {
                    "name": "conv2d_209/bias",
                    "shape": [
                        24
                    ],
                    "dtype": "float32"
                },
                {
                    "name": "conv2d_210/kernel",
                    "shape": [
                        1,
                        1,
                        24,
                        24
                    ],
                    "dtype": "float32"
                },
                {
                    "name": "conv2d_210/bias",
                    "shape": [
                        24
                    ],
                    "dtype": "float32"
                },
                {
                    "name": "conv2d_211/kernel",
                    "shape": [
                        3,
                        3,
                        24,
                        24
                    ],
                    "dtype": "float32"
                },
                {
                    "name": "conv2d_211/bias",
                    "shape": [
                        24
                    ],
                    "dtype": "float32"
                },
                {
                    "name": "conv2d_212/kernel",
                    "shape": [
                        1,
                        1,
                        48,
                        48
                    ],
                    "dtype": "float32"
                },
                {
                    "name": "conv2d_212/bias",
                    "shape": [
                        48
                    ],
                    "dtype": "float32"
                },
                {
                    "name": "conv2d_213/kernel",
                    "shape": [
                        1,
                        1,
                        48,
                        48
                    ],
                    "dtype": "float32"
                },
                {
                    "name": "conv2d_213/bias",
                    "shape": [
                        48
                    ],
                    "dtype": "float32"
                },
                {
                    "name": "conv2d_214/kernel",
                    "shape": [
                        3,
                        3,
                        48,
                        48
                    ],
                    "dtype": "float32"
                },
                {
                    "name": "conv2d_214/bias",
                    "shape": [
                        48
                    ],
                    "dtype": "float32"
                },
                {
                    "name": "conv2d_215/kernel",
                    "shape": [
                        1,
                        1,
                        96,
                        64
                    ],
                    "dtype": "float32"
                },
                {
                    "name": "conv2d_215/bias",
                    "shape": [
                        64
                    ],
                    "dtype": "float32"
                },
                {
                    "name": "conv2d_216/kernel",
                    "shape": [
                        1,
                        1,
                        64,
                        64
                    ],
                    "dtype": "float32"
                },
                {
                    "name": "conv2d_216/bias",
                    "shape": [
                        64
                    ],
                    "dtype": "float32"
                },
                {
                    "name": "conv2d_217/kernel",
                    "shape": [
                        3,
                        3,
                        64,
                        64
                    ],
                    "dtype": "float32"
                },
                {
                    "name": "conv2d_217/bias",
                    "shape": [
                        64
                    ],
                    "dtype": "float32"
                },
                {
                    "name": "conv2d_218/kernel",
                    "shape": [
                        1,
                        1,
                        128,
                        48
                    ],
                    "dtype": "float32"
                },
                {
                    "name": "conv2d_218/bias",
                    "shape": [
                        48
                    ],
                    "dtype": "float32"
                },
                {
                    "name": "conv2d_219/kernel",
                    "shape": [
                        1,
                        1,
                        48,
                        48
                    ],
                    "dtype": "float32"
                },
                {
                    "name": "conv2d_219/bias",
                    "shape": [
                        48
                    ],
                    "dtype": "float32"
                },
                {
                    "name": "conv2d_220/kernel",
                    "shape": [
                        3,
                        3,
                        48,
                        48
                    ],
                    "dtype": "float32"
                },
                {
                    "name": "conv2d_220/bias",
                    "shape": [
                        48
                    ],
                    "dtype": "float32"
                },
                {
                    "name": "conv2d_221/kernel",
                    "shape": [
                        1,
                        1,
                        96,
                        24
                    ],
                    "dtype": "float32"
                },
                {
                    "name": "conv2d_221/bias",
                    "shape": [
                        24
                    ],
                    "dtype": "float32"
                },
                {
                    "name": "conv2d_222/kernel",
                    "shape": [
                        1,
                        1,
                        24,
                        24
                    ],
                    "dtype": "float32"
                },
                {
                    "name": "conv2d_222/bias",
                    "shape": [
                        24
                    ],
                    "dtype": "float32"
                },
                {
                    "name": "conv2d_223/kernel",
                    "shape": [
                        3,
                        3,
                        24,
                        24
                    ],
                    "dtype": "float32"
                },
                {
                    "name": "conv2d_223/bias",
                    "shape": [
                        24
                    ],
                    "dtype": "float32"
                },
                {
                    "name": "dense_22/kernel",
                    "shape": [
                        48,
                        5
                    ],
                    "dtype": "float32"
                },
                {
                    "name": "dense_22/bias",
                    "shape": [
                        5
                    ],
                    "dtype": "float32"
                },
                {
                    "name": "dense_23/kernel",
                    "shape": [
                        48,
                        5
                    ],
                    "dtype": "float32"
                },
                {
                    "name": "dense_23/bias",
                    "shape": [
                        5
                    ],
                    "dtype": "float32"
                },
                {
                    "name": "dense_24/kernel",
                    "shape": [
                        10,
                        15
                    ],
                    "dtype": "float32"
                },
                {
                    "name": "dense_24/bias",
                    "shape": [
                        15
                    ],
                    "dtype": "float32"
                },
                {
                    "name": "dense_25/kernel",
                    "shape": [
                        15,
                        2
                    ],
                    "dtype": "float32"
                },
                {
                    "name": "dense_25/bias",
                    "shape": [
                        2
                    ],
                    "dtype": "float32"
                }
            ]
        }
    ]
}