{"format": "layers-model", "generatedBy": "keras v2.6.0", "convertedBy": "TensorFlow.js Converter v3.15.0", "modelTopology": {"keras_version": "2.6.0", "backend": "tensorflow", "model_config": {"class_name": "Functional", "config": {"name": "model_2", "layers": [{"class_name": "InputLayer", "config": {"batch_input_shape": [null, 36, 60, 3], "dtype": "float32", "sparse": false, "ragged": false, "name": "input_1"}, "name": "input_1", "inbound_nodes": []}, {"class_name": "InputLayer", "config": {"batch_input_shape": [null, 36, 60, 3], "dtype": "float32", "sparse": false, "ragged": false, "name": "input_2"}, "name": "input_2", "inbound_nodes": []}, {"class_name": "Conv2D", "config": {"name": "conv2d", "trainable": true, "dtype": "float32", "filters": 32, "kernel_size": [3, 3], "strides": [1, 1], "padding": "same", "data_format": "channels_last", "dilation_rate": [1, 1], "groups": 1, "activation": "relu", "use_bias": true, "kernel_initializer": {"class_name": "GlorotUniform", "config": {"seed": null}}, "bias_initializer": {"class_name": "Zeros", "config": {}}, "kernel_regularizer": null, "bias_regularizer": null, "activity_regularizer": null, "kernel_constraint": null, "bias_constraint": null}, "name": "conv2d", "inbound_nodes": [[["input_1", 0, 0, {}]]]}, {"class_name": "Conv2D", "config": {"name": "conv2d_19", "trainable": true, "dtype": "float32", "filters": 32, "kernel_size": [3, 3], "strides": [1, 1], "padding": "same", "data_format": "channels_last", "dilation_rate": [1, 1], "groups": 1, "activation": "relu", "use_bias": true, "kernel_initializer": {"class_name": "GlorotUniform", "config": {"seed": null}}, "bias_initializer": {"class_name": "Zeros", "config": {}}, "kernel_regularizer": null, "bias_regularizer": null, "activity_regularizer": null, "kernel_constraint": null, "bias_constraint": null}, "name": "conv2d_19", "inbound_nodes": [[["input_2", 0, 0, {}]]]}, {"class_name": "BatchNormalization", "config": {"name": "batch_normalization", "trainable": true, "dtype": "float32", "axis": [3], "momentum": 0.9, "epsilon": 0.001, "center": true, "scale": true, "beta_initializer": {"class_name": "Zeros", "config": {}}, "gamma_initializer": {"class_name": "Ones", "config": {}}, "moving_mean_initializer": {"class_name": "Zeros", "config": {}}, "moving_variance_initializer": {"class_name": "Ones", "config": {}}, "beta_regularizer": null, "gamma_regularizer": null, "beta_constraint": null, "gamma_constraint": null}, "name": "batch_normalization", "inbound_nodes": [[["conv2d", 0, 0, {}]]]}, {"class_name": "BatchNormalization", "config": {"name": "batch_normalization_19", "trainable": true, "dtype": "float32", "axis": [3], "momentum": 0.9, "epsilon": 0.001, "center": true, "scale": true, "beta_initializer": {"class_name": "Zeros", "config": {}}, "gamma_initializer": {"class_name": "Ones", "config": {}}, "moving_mean_initializer": {"class_name": "Zeros", "config": {}}, "moving_variance_initializer": {"class_name": "Ones", "config": {}}, "beta_regularizer": null, "gamma_regularizer": null, "beta_constraint": null, "gamma_constraint": null}, "name": "batch_normalization_19", "inbound_nodes": [[["conv2d_19", 0, 0, {}]]]}, {"class_name": "Conv2D", "config": {"name": "conv2d_1", "trainable": true, "dtype": "float32", "filters": 24, "kernel_size": [1, 1], "strides": [1, 1], "padding": "same", "data_format": "channels_last", "dilation_rate": [1, 1], "groups": 1, "activation": "relu", "use_bias": true, "kernel_initializer": {"class_name": "GlorotUniform", "config": {"seed": null}}, "bias_initializer": {"class_name": "Zeros", "config": {}}, "kernel_regularizer": null, "bias_regularizer": null, "activity_regularizer": null, "kernel_constraint": null, "bias_constraint": null}, "name": "conv2d_1", "inbound_nodes": [[["batch_normalization", 0, 0, {}]]]}, {"class_name": "Conv2D", "config": {"name": "conv2d_20", "trainable": true, "dtype": "float32", "filters": 24, "kernel_size": [1, 1], "strides": [1, 1], "padding": "same", "data_format": "channels_last", "dilation_rate": [1, 1], "groups": 1, "activation": "relu", "use_bias": true, "kernel_initializer": {"class_name": "GlorotUniform", "config": {"seed": null}}, "bias_initializer": {"class_name": "Zeros", "config": {}}, "kernel_regularizer": null, "bias_regularizer": null, "activity_regularizer": null, "kernel_constraint": null, "bias_constraint": null}, "name": "conv2d_20", "inbound_nodes": [[["batch_normalization_19", 0, 0, {}]]]}, {"class_name": "BatchNormalization", "config": {"name": "batch_normalization_1", "trainable": true, "dtype": "float32", "axis": [3], "momentum": 0.9, "epsilon": 0.001, "center": true, "scale": true, "beta_initializer": {"class_name": "Zeros", "config": {}}, "gamma_initializer": {"class_name": "Ones", "config": {}}, "moving_mean_initializer": {"class_name": "Zeros", "config": {}}, "moving_variance_initializer": {"class_name": "Ones", "config": {}}, "beta_regularizer": null, "gamma_regularizer": null, "beta_constraint": null, "gamma_constraint": null}, "name": "batch_normalization_1", "inbound_nodes": [[["conv2d_1", 0, 0, {}]]]}, {"class_name": "BatchNormalization", "config": {"name": "batch_normalization_20", "trainable": true, "dtype": "float32", "axis": [3], "momentum": 0.9, "epsilon": 0.001, "center": true, "scale": true, "beta_initializer": {"class_name": "Zeros", "config": {}}, "gamma_initializer": {"class_name": "Ones", "config": {}}, "moving_mean_initializer": {"class_name": "Zeros", "config": {}}, "moving_variance_initializer": {"class_name": "Ones", "config": {}}, "beta_regularizer": null, "gamma_regularizer": null, "beta_constraint": null, "gamma_constraint": null}, "name": "batch_normalization_20", "inbound_nodes": [[["conv2d_20", 0, 0, {}]]]}, {"class_name": "Conv2D", "config": {"name": "conv2d_2", "trainable": true, "dtype": "float32", "filters": 24, "kernel_size": [1, 1], "strides": [1, 1], "padding": "same", "data_format": "channels_last", "dilation_rate": [1, 1], "groups": 1, "activation": "relu", "use_bias": true, "kernel_initializer": {"class_name": "GlorotUniform", "config": {"seed": null}}, "bias_initializer": {"class_name": "Zeros", "config": {}}, "kernel_regularizer": null, "bias_regularizer": null, "activity_regularizer": null, "kernel_constraint": null, "bias_constraint": null}, "name": "conv2d_2", "inbound_nodes": [[["batch_normalization_1", 0, 0, {}]]]}, {"class_name": "Conv2D", "config": {"name": "conv2d_3", "trainable": true, "dtype": "float32", "filters": 24, "kernel_size": [3, 3], "strides": [1, 1], "padding": "same", "data_format": "channels_last", "dilation_rate": [1, 1], "groups": 1, "activation": "relu", "use_bias": true, "kernel_initializer": {"class_name": "GlorotUniform", "config": {"seed": null}}, "bias_initializer": {"class_name": "Zeros", "config": {}}, "kernel_regularizer": null, "bias_regularizer": null, "activity_regularizer": null, "kernel_constraint": null, "bias_constraint": null}, "name": "conv2d_3", "inbound_nodes": [[["batch_normalization_1", 0, 0, {}]]]}, {"class_name": "Conv2D", "config": {"name": "conv2d_21", "trainable": true, "dtype": "float32", "filters": 24, "kernel_size": [1, 1], "strides": [1, 1], "padding": "same", "data_format": "channels_last", "dilation_rate": [1, 1], "groups": 1, "activation": "relu", "use_bias": true, "kernel_initializer": {"class_name": "GlorotUniform", "config": {"seed": null}}, "bias_initializer": {"class_name": "Zeros", "config": {}}, "kernel_regularizer": null, "bias_regularizer": null, "activity_regularizer": null, "kernel_constraint": null, "bias_constraint": null}, "name": "conv2d_21", "inbound_nodes": [[["batch_normalization_20", 0, 0, {}]]]}, {"class_name": "Conv2D", "config": {"name": "conv2d_22", "trainable": true, "dtype": "float32", "filters": 24, "kernel_size": [3, 3], "strides": [1, 1], "padding": "same", "data_format": "channels_last", "dilation_rate": [1, 1], "groups": 1, "activation": "relu", "use_bias": true, "kernel_initializer": {"class_name": "GlorotUniform", "config": {"seed": null}}, "bias_initializer": {"class_name": "Zeros", "config": {}}, "kernel_regularizer": null, "bias_regularizer": null, "activity_regularizer": null, "kernel_constraint": null, "bias_constraint": null}, "name": "conv2d_22", "inbound_nodes": [[["batch_normalization_20", 0, 0, {}]]]}, {"class_name": "BatchNormalization", "config": {"name": "batch_normalization_2", "trainable": true, "dtype": "float32", "axis": [3], "momentum": 0.9, "epsilon": 0.001, "center": true, "scale": true, "beta_initializer": {"class_name": "Zeros", "config": {}}, "gamma_initializer": {"class_name": "Ones", "config": {}}, "moving_mean_initializer": {"class_name": "Zeros", "config": {}}, "moving_variance_initializer": {"class_name": "Ones", "config": {}}, "beta_regularizer": null, "gamma_regularizer": null, "beta_constraint": null, "gamma_constraint": null}, "name": "batch_normalization_2", "inbound_nodes": [[["conv2d_2", 0, 0, {}]]]}, {"class_name": "BatchNormalization", "config": {"name": "batch_normalization_3", "trainable": true, "dtype": "float32", "axis": [3], "momentum": 0.9, "epsilon": 0.001, "center": true, "scale": true, "beta_initializer": {"class_name": "Zeros", "config": {}}, "gamma_initializer": {"class_name": "Ones", "config": {}}, "moving_mean_initializer": {"class_name": "Zeros", "config": {}}, "moving_variance_initializer": {"class_name": "Ones", "config": {}}, "beta_regularizer": null, "gamma_regularizer": null, "beta_constraint": null, "gamma_constraint": null}, "name": "batch_normalization_3", "inbound_nodes": [[["conv2d_3", 0, 0, {}]]]}, {"class_name": "BatchNormalization", "config": {"name": "batch_normalization_21", "trainable": true, "dtype": "float32", "axis": [3], "momentum": 0.9, "epsilon": 0.001, "center": true, "scale": true, "beta_initializer": {"class_name": "Zeros", "config": {}}, "gamma_initializer": {"class_name": "Ones", "config": {}}, "moving_mean_initializer": {"class_name": "Zeros", "config": {}}, "moving_variance_initializer": {"class_name": "Ones", "config": {}}, "beta_regularizer": null, "gamma_regularizer": null, "beta_constraint": null, "gamma_constraint": null}, "name": "batch_normalization_21", "inbound_nodes": [[["conv2d_21", 0, 0, {}]]]}, {"class_name": "BatchNormalization", "config": {"name": "batch_normalization_22", "trainable": true, "dtype": "float32", "axis": [3], "momentum": 0.9, "epsilon": 0.001, "center": true, "scale": true, "beta_initializer": {"class_name": "Zeros", "config": {}}, "gamma_initializer": {"class_name": "Ones", "config": {}}, "moving_mean_initializer": {"class_name": "Zeros", "config": {}}, "moving_variance_initializer": {"class_name": "Ones", "config": {}}, "beta_regularizer": null, "gamma_regularizer": null, "beta_constraint": null, "gamma_constraint": null}, "name": "batch_normalization_22", "inbound_nodes": [[["conv2d_22", 0, 0, {}]]]}, {"class_name": "Concatenate", "config": {"name": "concatenate", "trainable": true, "dtype": "float32", "axis": -1}, "name": "concatenate", "inbound_nodes": [[["batch_normalization_2", 0, 0, {}], ["batch_normalization_3", 0, 0, {}]]]}, {"class_name": "Concatenate", "config": {"name": "concatenate_6", "trainable": true, "dtype": "float32", "axis": -1}, "name": "concatenate_6", "inbound_nodes": [[["batch_normalization_21", 0, 0, {}], ["batch_normalization_22", 0, 0, {}]]]}, {"class_name": "MaxPooling2D", "config": {"name": "max_pooling2d", "trainable": true, "dtype": "float32", "pool_size": [2, 2], "padding": "valid", "strides": [2, 2], "data_format": "channels_last"}, "name": "max_pooling2d", "inbound_nodes": [[["concatenate", 0, 0, {}]]]}, {"class_name": "MaxPooling2D", "config": {"name": "max_pooling2d_5", "trainable": true, "dtype": "float32", "pool_size": [2, 2], "padding": "valid", "strides": [2, 2], "data_format": "channels_last"}, "name": "max_pooling2d_5", "inbound_nodes": [[["concatenate_6", 0, 0, {}]]]}, {"class_name": "Conv2D", "config": {"name": "conv2d_4", "trainable": true, "dtype": "float32", "filters": 48, "kernel_size": [1, 1], "strides": [1, 1], "padding": "same", "data_format": "channels_last", "dilation_rate": [1, 1], "groups": 1, "activation": "relu", "use_bias": true, "kernel_initializer": {"class_name": "GlorotUniform", "config": {"seed": null}}, "bias_initializer": {"class_name": "Zeros", "config": {}}, "kernel_regularizer": null, "bias_regularizer": null, "activity_regularizer": null, "kernel_constraint": null, "bias_constraint": null}, "name": "conv2d_4", "inbound_nodes": [[["max_pooling2d", 0, 0, {}]]]}, {"class_name": "Conv2D", "config": {"name": "conv2d_23", "trainable": true, "dtype": "float32", "filters": 48, "kernel_size": [1, 1], "strides": [1, 1], "padding": "same", "data_format": "channels_last", "dilation_rate": [1, 1], "groups": 1, "activation": "relu", "use_bias": true, "kernel_initializer": {"class_name": "GlorotUniform", "config": {"seed": null}}, "bias_initializer": {"class_name": "Zeros", "config": {}}, "kernel_regularizer": null, "bias_regularizer": null, "activity_regularizer": null, "kernel_constraint": null, "bias_constraint": null}, "name": "conv2d_23", "inbound_nodes": [[["max_pooling2d_5", 0, 0, {}]]]}, {"class_name": "BatchNormalization", "config": {"name": "batch_normalization_4", "trainable": true, "dtype": "float32", "axis": [3], "momentum": 0.9, "epsilon": 0.001, "center": true, "scale": true, "beta_initializer": {"class_name": "Zeros", "config": {}}, "gamma_initializer": {"class_name": "Ones", "config": {}}, "moving_mean_initializer": {"class_name": "Zeros", "config": {}}, "moving_variance_initializer": {"class_name": "Ones", "config": {}}, "beta_regularizer": null, "gamma_regularizer": null, "beta_constraint": null, "gamma_constraint": null}, "name": "batch_normalization_4", "inbound_nodes": [[["conv2d_4", 0, 0, {}]]]}, {"class_name": "BatchNormalization", "config": {"name": "batch_normalization_23", "trainable": true, "dtype": "float32", "axis": [3], "momentum": 0.9, "epsilon": 0.001, "center": true, "scale": true, "beta_initializer": {"class_name": "Zeros", "config": {}}, "gamma_initializer": {"class_name": "Ones", "config": {}}, "moving_mean_initializer": {"class_name": "Zeros", "config": {}}, "moving_variance_initializer": {"class_name": "Ones", "config": {}}, "beta_regularizer": null, "gamma_regularizer": null, "beta_constraint": null, "gamma_constraint": null}, "name": "batch_normalization_23", "inbound_nodes": [[["conv2d_23", 0, 0, {}]]]}, {"class_name": "Conv2D", "config": {"name": "conv2d_5", "trainable": true, "dtype": "float32", "filters": 48, "kernel_size": [1, 1], "strides": [1, 1], "padding": "same", "data_format": "channels_last", "dilation_rate": [1, 1], "groups": 1, "activation": "relu", "use_bias": true, "kernel_initializer": {"class_name": "GlorotUniform", "config": {"seed": null}}, "bias_initializer": {"class_name": "Zeros", "config": {}}, "kernel_regularizer": null, "bias_regularizer": null, "activity_regularizer": null, "kernel_constraint": null, "bias_constraint": null}, "name": "conv2d_5", "inbound_nodes": [[["batch_normalization_4", 0, 0, {}]]]}, {"class_name": "Conv2D", "config": {"name": "conv2d_6", "trainable": true, "dtype": "float32", "filters": 48, "kernel_size": [3, 3], "strides": [1, 1], "padding": "same", "data_format": "channels_last", "dilation_rate": [1, 1], "groups": 1, "activation": "relu", "use_bias": true, "kernel_initializer": {"class_name": "GlorotUniform", "config": {"seed": null}}, "bias_initializer": {"class_name": "Zeros", "config": {}}, "kernel_regularizer": null, "bias_regularizer": null, "activity_regularizer": null, "kernel_constraint": null, "bias_constraint": null}, "name": "conv2d_6", "inbound_nodes": [[["batch_normalization_4", 0, 0, {}]]]}, {"class_name": "Conv2D", "config": {"name": "conv2d_24", "trainable": true, "dtype": "float32", "filters": 48, "kernel_size": [1, 1], "strides": [1, 1], "padding": "same", "data_format": "channels_last", "dilation_rate": [1, 1], "groups": 1, "activation": "relu", "use_bias": true, "kernel_initializer": {"class_name": "GlorotUniform", "config": {"seed": null}}, "bias_initializer": {"class_name": "Zeros", "config": {}}, "kernel_regularizer": null, "bias_regularizer": null, "activity_regularizer": null, "kernel_constraint": null, "bias_constraint": null}, "name": "conv2d_24", "inbound_nodes": [[["batch_normalization_23", 0, 0, {}]]]}, {"class_name": "Conv2D", "config": {"name": "conv2d_25", "trainable": true, "dtype": "float32", "filters": 48, "kernel_size": [3, 3], "strides": [1, 1], "padding": "same", "data_format": "channels_last", "dilation_rate": [1, 1], "groups": 1, "activation": "relu", "use_bias": true, "kernel_initializer": {"class_name": "GlorotUniform", "config": {"seed": null}}, "bias_initializer": {"class_name": "Zeros", "config": {}}, "kernel_regularizer": null, "bias_regularizer": null, "activity_regularizer": null, "kernel_constraint": null, "bias_constraint": null}, "name": "conv2d_25", "inbound_nodes": [[["batch_normalization_23", 0, 0, {}]]]}, {"class_name": "BatchNormalization", "config": {"name": "batch_normalization_5", "trainable": true, "dtype": "float32", "axis": [3], "momentum": 0.9, "epsilon": 0.001, "center": true, "scale": true, "beta_initializer": {"class_name": "Zeros", "config": {}}, "gamma_initializer": {"class_name": "Ones", "config": {}}, "moving_mean_initializer": {"class_name": "Zeros", "config": {}}, "moving_variance_initializer": {"class_name": "Ones", "config": {}}, "beta_regularizer": null, "gamma_regularizer": null, "beta_constraint": null, "gamma_constraint": null}, "name": "batch_normalization_5", "inbound_nodes": [[["conv2d_5", 0, 0, {}]]]}, {"class_name": "BatchNormalization", "config": {"name": "batch_normalization_6", "trainable": true, "dtype": "float32", "axis": [3], "momentum": 0.9, "epsilon": 0.001, "center": true, "scale": true, "beta_initializer": {"class_name": "Zeros", "config": {}}, "gamma_initializer": {"class_name": "Ones", "config": {}}, "moving_mean_initializer": {"class_name": "Zeros", "config": {}}, "moving_variance_initializer": {"class_name": "Ones", "config": {}}, "beta_regularizer": null, "gamma_regularizer": null, "beta_constraint": null, "gamma_constraint": null}, "name": "batch_normalization_6", "inbound_nodes": [[["conv2d_6", 0, 0, {}]]]}, {"class_name": "BatchNormalization", "config": {"name": "batch_normalization_24", "trainable": true, "dtype": "float32", "axis": [3], "momentum": 0.9, "epsilon": 0.001, "center": true, "scale": true, "beta_initializer": {"class_name": "Zeros", "config": {}}, "gamma_initializer": {"class_name": "Ones", "config": {}}, "moving_mean_initializer": {"class_name": "Zeros", "config": {}}, "moving_variance_initializer": {"class_name": "Ones", "config": {}}, "beta_regularizer": null, "gamma_regularizer": null, "beta_constraint": null, "gamma_constraint": null}, "name": "batch_normalization_24", "inbound_nodes": [[["conv2d_24", 0, 0, {}]]]}, {"class_name": "BatchNormalization", "config": {"name": "batch_normalization_25", "trainable": true, "dtype": "float32", "axis": [3], "momentum": 0.9, "epsilon": 0.001, "center": true, "scale": true, "beta_initializer": {"class_name": "Zeros", "config": {}}, "gamma_initializer": {"class_name": "Ones", "config": {}}, "moving_mean_initializer": {"class_name": "Zeros", "config": {}}, "moving_variance_initializer": {"class_name": "Ones", "config": {}}, "beta_regularizer": null, "gamma_regularizer": null, "beta_constraint": null, "gamma_constraint": null}, "name": "batch_normalization_25", "inbound_nodes": [[["conv2d_25", 0, 0, {}]]]}, {"class_name": "Concatenate", "config": {"name": "concatenate_1", "trainable": true, "dtype": "float32", "axis": -1}, "name": "concatenate_1", "inbound_nodes": [[["batch_normalization_5", 0, 0, {}], ["batch_normalization_6", 0, 0, {}]]]}, {"class_name": "Concatenate", "config": {"name": "concatenate_7", "trainable": true, "dtype": "float32", "axis": -1}, "name": "concatenate_7", "inbound_nodes": [[["batch_normalization_24", 0, 0, {}], ["batch_normalization_25", 0, 0, {}]]]}, {"class_name": "MaxPooling2D", "config": {"name": "max_pooling2d_1", "trainable": true, "dtype": "float32", "pool_size": [2, 2], "padding": "valid", "strides": [2, 2], "data_format": "channels_last"}, "name": "max_pooling2d_1", "inbound_nodes": [[["concatenate_1", 0, 0, {}]]]}, {"class_name": "MaxPooling2D", "config": {"name": "max_pooling2d_6", "trainable": true, "dtype": "float32", "pool_size": [2, 2], "padding": "valid", "strides": [2, 2], "data_format": "channels_last"}, "name": "max_pooling2d_6", "inbound_nodes": [[["concatenate_7", 0, 0, {}]]]}, {"class_name": "Conv2D", "config": {"name": "conv2d_7", "trainable": true, "dtype": "float32", "filters": 64, "kernel_size": [1, 1], "strides": [1, 1], "padding": "same", "data_format": "channels_last", "dilation_rate": [1, 1], "groups": 1, "activation": "relu", "use_bias": true, "kernel_initializer": {"class_name": "GlorotUniform", "config": {"seed": null}}, "bias_initializer": {"class_name": "Zeros", "config": {}}, "kernel_regularizer": null, "bias_regularizer": null, "activity_regularizer": null, "kernel_constraint": null, "bias_constraint": null}, "name": "conv2d_7", "inbound_nodes": [[["max_pooling2d_1", 0, 0, {}]]]}, {"class_name": "Conv2D", "config": {"name": "conv2d_26", "trainable": true, "dtype": "float32", "filters": 64, "kernel_size": [1, 1], "strides": [1, 1], "padding": "same", "data_format": "channels_last", "dilation_rate": [1, 1], "groups": 1, "activation": "relu", "use_bias": true, "kernel_initializer": {"class_name": "GlorotUniform", "config": {"seed": null}}, "bias_initializer": {"class_name": "Zeros", "config": {}}, "kernel_regularizer": null, "bias_regularizer": null, "activity_regularizer": null, "kernel_constraint": null, "bias_constraint": null}, "name": "conv2d_26", "inbound_nodes": [[["max_pooling2d_6", 0, 0, {}]]]}, {"class_name": "BatchNormalization", "config": {"name": "batch_normalization_7", "trainable": true, "dtype": "float32", "axis": [3], "momentum": 0.9, "epsilon": 0.001, "center": true, "scale": true, "beta_initializer": {"class_name": "Zeros", "config": {}}, "gamma_initializer": {"class_name": "Ones", "config": {}}, "moving_mean_initializer": {"class_name": "Zeros", "config": {}}, "moving_variance_initializer": {"class_name": "Ones", "config": {}}, "beta_regularizer": null, "gamma_regularizer": null, "beta_constraint": null, "gamma_constraint": null}, "name": "batch_normalization_7", "inbound_nodes": [[["conv2d_7", 0, 0, {}]]]}, {"class_name": "BatchNormalization", "config": {"name": "batch_normalization_26", "trainable": true, "dtype": "float32", "axis": [3], "momentum": 0.9, "epsilon": 0.001, "center": true, "scale": true, "beta_initializer": {"class_name": "Zeros", "config": {}}, "gamma_initializer": {"class_name": "Ones", "config": {}}, "moving_mean_initializer": {"class_name": "Zeros", "config": {}}, "moving_variance_initializer": {"class_name": "Ones", "config": {}}, "beta_regularizer": null, "gamma_regularizer": null, "beta_constraint": null, "gamma_constraint": null}, "name": "batch_normalization_26", "inbound_nodes": [[["conv2d_26", 0, 0, {}]]]}, {"class_name": "Conv2D", "config": {"name": "conv2d_8", "trainable": true, "dtype": "float32", "filters": 64, "kernel_size": [1, 1], "strides": [1, 1], "padding": "same", "data_format": "channels_last", "dilation_rate": [1, 1], "groups": 1, "activation": "relu", "use_bias": true, "kernel_initializer": {"class_name": "GlorotUniform", "config": {"seed": null}}, "bias_initializer": {"class_name": "Zeros", "config": {}}, "kernel_regularizer": null, "bias_regularizer": null, "activity_regularizer": null, "kernel_constraint": null, "bias_constraint": null}, "name": "conv2d_8", "inbound_nodes": [[["batch_normalization_7", 0, 0, {}]]]}, {"class_name": "Conv2D", "config": {"name": "conv2d_9", "trainable": true, "dtype": "float32", "filters": 64, "kernel_size": [3, 3], "strides": [1, 1], "padding": "same", "data_format": "channels_last", "dilation_rate": [1, 1], "groups": 1, "activation": "relu", "use_bias": true, "kernel_initializer": {"class_name": "GlorotUniform", "config": {"seed": null}}, "bias_initializer": {"class_name": "Zeros", "config": {}}, "kernel_regularizer": null, "bias_regularizer": null, "activity_regularizer": null, "kernel_constraint": null, "bias_constraint": null}, "name": "conv2d_9", "inbound_nodes": [[["batch_normalization_7", 0, 0, {}]]]}, {"class_name": "Conv2D", "config": {"name": "conv2d_27", "trainable": true, "dtype": "float32", "filters": 64, "kernel_size": [1, 1], "strides": [1, 1], "padding": "same", "data_format": "channels_last", "dilation_rate": [1, 1], "groups": 1, "activation": "relu", "use_bias": true, "kernel_initializer": {"class_name": "GlorotUniform", "config": {"seed": null}}, "bias_initializer": {"class_name": "Zeros", "config": {}}, "kernel_regularizer": null, "bias_regularizer": null, "activity_regularizer": null, "kernel_constraint": null, "bias_constraint": null}, "name": "conv2d_27", "inbound_nodes": [[["batch_normalization_26", 0, 0, {}]]]}, {"class_name": "Conv2D", "config": {"name": "conv2d_28", "trainable": true, "dtype": "float32", "filters": 64, "kernel_size": [3, 3], "strides": [1, 1], "padding": "same", "data_format": "channels_last", "dilation_rate": [1, 1], "groups": 1, "activation": "relu", "use_bias": true, "kernel_initializer": {"class_name": "GlorotUniform", "config": {"seed": null}}, "bias_initializer": {"class_name": "Zeros", "config": {}}, "kernel_regularizer": null, "bias_regularizer": null, "activity_regularizer": null, "kernel_constraint": null, "bias_constraint": null}, "name": "conv2d_28", "inbound_nodes": [[["batch_normalization_26", 0, 0, {}]]]}, {"class_name": "BatchNormalization", "config": {"name": "batch_normalization_8", "trainable": true, "dtype": "float32", "axis": [3], "momentum": 0.9, "epsilon": 0.001, "center": true, "scale": true, "beta_initializer": {"class_name": "Zeros", "config": {}}, "gamma_initializer": {"class_name": "Ones", "config": {}}, "moving_mean_initializer": {"class_name": "Zeros", "config": {}}, "moving_variance_initializer": {"class_name": "Ones", "config": {}}, "beta_regularizer": null, "gamma_regularizer": null, "beta_constraint": null, "gamma_constraint": null}, "name": "batch_normalization_8", "inbound_nodes": [[["conv2d_8", 0, 0, {}]]]}, {"class_name": "BatchNormalization", "config": {"name": "batch_normalization_9", "trainable": true, "dtype": "float32", "axis": [3], "momentum": 0.9, "epsilon": 0.001, "center": true, "scale": true, "beta_initializer": {"class_name": "Zeros", "config": {}}, "gamma_initializer": {"class_name": "Ones", "config": {}}, "moving_mean_initializer": {"class_name": "Zeros", "config": {}}, "moving_variance_initializer": {"class_name": "Ones", "config": {}}, "beta_regularizer": null, "gamma_regularizer": null, "beta_constraint": null, "gamma_constraint": null}, "name": "batch_normalization_9", "inbound_nodes": [[["conv2d_9", 0, 0, {}]]]}, {"class_name": "BatchNormalization", "config": {"name": "batch_normalization_27", "trainable": true, "dtype": "float32", "axis": [3], "momentum": 0.9, "epsilon": 0.001, "center": true, "scale": true, "beta_initializer": {"class_name": "Zeros", "config": {}}, "gamma_initializer": {"class_name": "Ones", "config": {}}, "moving_mean_initializer": {"class_name": "Zeros", "config": {}}, "moving_variance_initializer": {"class_name": "Ones", "config": {}}, "beta_regularizer": null, "gamma_regularizer": null, "beta_constraint": null, "gamma_constraint": null}, "name": "batch_normalization_27", "inbound_nodes": [[["conv2d_27", 0, 0, {}]]]}, {"class_name": "BatchNormalization", "config": {"name": "batch_normalization_28", "trainable": true, "dtype": "float32", "axis": [3], "momentum": 0.9, "epsilon": 0.001, "center": true, "scale": true, "beta_initializer": {"class_name": "Zeros", "config": {}}, "gamma_initializer": {"class_name": "Ones", "config": {}}, "moving_mean_initializer": {"class_name": "Zeros", "config": {}}, "moving_variance_initializer": {"class_name": "Ones", "config": {}}, "beta_regularizer": null, "gamma_regularizer": null, "beta_constraint": null, "gamma_constraint": null}, "name": "batch_normalization_28", "inbound_nodes": [[["conv2d_28", 0, 0, {}]]]}, {"class_name": "Concatenate", "config": {"name": "concatenate_2", "trainable": true, "dtype": "float32", "axis": -1}, "name": "concatenate_2", "inbound_nodes": [[["batch_normalization_8", 0, 0, {}], ["batch_normalization_9", 0, 0, {}]]]}, {"class_name": "Concatenate", "config": {"name": "concatenate_8", "trainable": true, "dtype": "float32", "axis": -1}, "name": "concatenate_8", "inbound_nodes": [[["batch_normalization_27", 0, 0, {}], ["batch_normalization_28", 0, 0, {}]]]}, {"class_name": "MaxPooling2D", "config": {"name": "max_pooling2d_2", "trainable": true, "dtype": "float32", "pool_size": [2, 2], "padding": "valid", "strides": [2, 2], "data_format": "channels_last"}, "name": "max_pooling2d_2", "inbound_nodes": [[["concatenate_2", 0, 0, {}]]]}, {"class_name": "MaxPooling2D", "config": {"name": "max_pooling2d_7", "trainable": true, "dtype": "float32", "pool_size": [2, 2], "padding": "valid", "strides": [2, 2], "data_format": "channels_last"}, "name": "max_pooling2d_7", "inbound_nodes": [[["concatenate_8", 0, 0, {}]]]}, {"class_name": "Conv2D", "config": {"name": "conv2d_10", "trainable": true, "dtype": "float32", "filters": 48, "kernel_size": [1, 1], "strides": [1, 1], "padding": "same", "data_format": "channels_last", "dilation_rate": [1, 1], "groups": 1, "activation": "relu", "use_bias": true, "kernel_initializer": {"class_name": "GlorotUniform", "config": {"seed": null}}, "bias_initializer": {"class_name": "Zeros", "config": {}}, "kernel_regularizer": null, "bias_regularizer": null, "activity_regularizer": null, "kernel_constraint": null, "bias_constraint": null}, "name": "conv2d_10", "inbound_nodes": [[["max_pooling2d_2", 0, 0, {}]]]}, {"class_name": "Conv2D", "config": {"name": "conv2d_29", "trainable": true, "dtype": "float32", "filters": 48, "kernel_size": [1, 1], "strides": [1, 1], "padding": "same", "data_format": "channels_last", "dilation_rate": [1, 1], "groups": 1, "activation": "relu", "use_bias": true, "kernel_initializer": {"class_name": "GlorotUniform", "config": {"seed": null}}, "bias_initializer": {"class_name": "Zeros", "config": {}}, "kernel_regularizer": null, "bias_regularizer": null, "activity_regularizer": null, "kernel_constraint": null, "bias_constraint": null}, "name": "conv2d_29", "inbound_nodes": [[["max_pooling2d_7", 0, 0, {}]]]}, {"class_name": "BatchNormalization", "config": {"name": "batch_normalization_10", "trainable": true, "dtype": "float32", "axis": [3], "momentum": 0.9, "epsilon": 0.001, "center": true, "scale": true, "beta_initializer": {"class_name": "Zeros", "config": {}}, "gamma_initializer": {"class_name": "Ones", "config": {}}, "moving_mean_initializer": {"class_name": "Zeros", "config": {}}, "moving_variance_initializer": {"class_name": "Ones", "config": {}}, "beta_regularizer": null, "gamma_regularizer": null, "beta_constraint": null, "gamma_constraint": null}, "name": "batch_normalization_10", "inbound_nodes": [[["conv2d_10", 0, 0, {}]]]}, {"class_name": "BatchNormalization", "config": {"name": "batch_normalization_29", "trainable": true, "dtype": "float32", "axis": [3], "momentum": 0.9, "epsilon": 0.001, "center": true, "scale": true, "beta_initializer": {"class_name": "Zeros", "config": {}}, "gamma_initializer": {"class_name": "Ones", "config": {}}, "moving_mean_initializer": {"class_name": "Zeros", "config": {}}, "moving_variance_initializer": {"class_name": "Ones", "config": {}}, "beta_regularizer": null, "gamma_regularizer": null, "beta_constraint": null, "gamma_constraint": null}, "name": "batch_normalization_29", "inbound_nodes": [[["conv2d_29", 0, 0, {}]]]}, {"class_name": "Conv2D", "config": {"name": "conv2d_11", "trainable": true, "dtype": "float32", "filters": 48, "kernel_size": [1, 1], "strides": [1, 1], "padding": "same", "data_format": "channels_last", "dilation_rate": [1, 1], "groups": 1, "activation": "relu", "use_bias": true, "kernel_initializer": {"class_name": "GlorotUniform", "config": {"seed": null}}, "bias_initializer": {"class_name": "Zeros", "config": {}}, "kernel_regularizer": null, "bias_regularizer": null, "activity_regularizer": null, "kernel_constraint": null, "bias_constraint": null}, "name": "conv2d_11", "inbound_nodes": [[["batch_normalization_10", 0, 0, {}]]]}, {"class_name": "Conv2D", "config": {"name": "conv2d_12", "trainable": true, "dtype": "float32", "filters": 48, "kernel_size": [3, 3], "strides": [1, 1], "padding": "same", "data_format": "channels_last", "dilation_rate": [1, 1], "groups": 1, "activation": "relu", "use_bias": true, "kernel_initializer": {"class_name": "GlorotUniform", "config": {"seed": null}}, "bias_initializer": {"class_name": "Zeros", "config": {}}, "kernel_regularizer": null, "bias_regularizer": null, "activity_regularizer": null, "kernel_constraint": null, "bias_constraint": null}, "name": "conv2d_12", "inbound_nodes": [[["batch_normalization_10", 0, 0, {}]]]}, {"class_name": "Conv2D", "config": {"name": "conv2d_30", "trainable": true, "dtype": "float32", "filters": 48, "kernel_size": [1, 1], "strides": [1, 1], "padding": "same", "data_format": "channels_last", "dilation_rate": [1, 1], "groups": 1, "activation": "relu", "use_bias": true, "kernel_initializer": {"class_name": "GlorotUniform", "config": {"seed": null}}, "bias_initializer": {"class_name": "Zeros", "config": {}}, "kernel_regularizer": null, "bias_regularizer": null, "activity_regularizer": null, "kernel_constraint": null, "bias_constraint": null}, "name": "conv2d_30", "inbound_nodes": [[["batch_normalization_29", 0, 0, {}]]]}, {"class_name": "Conv2D", "config": {"name": "conv2d_31", "trainable": true, "dtype": "float32", "filters": 48, "kernel_size": [3, 3], "strides": [1, 1], "padding": "same", "data_format": "channels_last", "dilation_rate": [1, 1], "groups": 1, "activation": "relu", "use_bias": true, "kernel_initializer": {"class_name": "GlorotUniform", "config": {"seed": null}}, "bias_initializer": {"class_name": "Zeros", "config": {}}, "kernel_regularizer": null, "bias_regularizer": null, "activity_regularizer": null, "kernel_constraint": null, "bias_constraint": null}, "name": "conv2d_31", "inbound_nodes": [[["batch_normalization_29", 0, 0, {}]]]}, {"class_name": "BatchNormalization", "config": {"name": "batch_normalization_11", "trainable": true, "dtype": "float32", "axis": [3], "momentum": 0.9, "epsilon": 0.001, "center": true, "scale": true, "beta_initializer": {"class_name": "Zeros", "config": {}}, "gamma_initializer": {"class_name": "Ones", "config": {}}, "moving_mean_initializer": {"class_name": "Zeros", "config": {}}, "moving_variance_initializer": {"class_name": "Ones", "config": {}}, "beta_regularizer": null, "gamma_regularizer": null, "beta_constraint": null, "gamma_constraint": null}, "name": "batch_normalization_11", "inbound_nodes": [[["conv2d_11", 0, 0, {}]]]}, {"class_name": "BatchNormalization", "config": {"name": "batch_normalization_12", "trainable": true, "dtype": "float32", "axis": [3], "momentum": 0.9, "epsilon": 0.001, "center": true, "scale": true, "beta_initializer": {"class_name": "Zeros", "config": {}}, "gamma_initializer": {"class_name": "Ones", "config": {}}, "moving_mean_initializer": {"class_name": "Zeros", "config": {}}, "moving_variance_initializer": {"class_name": "Ones", "config": {}}, "beta_regularizer": null, "gamma_regularizer": null, "beta_constraint": null, "gamma_constraint": null}, "name": "batch_normalization_12", "inbound_nodes": [[["conv2d_12", 0, 0, {}]]]}, {"class_name": "BatchNormalization", "config": {"name": "batch_normalization_30", "trainable": true, "dtype": "float32", "axis": [3], "momentum": 0.9, "epsilon": 0.001, "center": true, "scale": true, "beta_initializer": {"class_name": "Zeros", "config": {}}, "gamma_initializer": {"class_name": "Ones", "config": {}}, "moving_mean_initializer": {"class_name": "Zeros", "config": {}}, "moving_variance_initializer": {"class_name": "Ones", "config": {}}, "beta_regularizer": null, "gamma_regularizer": null, "beta_constraint": null, "gamma_constraint": null}, "name": "batch_normalization_30", "inbound_nodes": [[["conv2d_30", 0, 0, {}]]]}, {"class_name": "BatchNormalization", "config": {"name": "batch_normalization_31", "trainable": true, "dtype": "float32", "axis": [3], "momentum": 0.9, "epsilon": 0.001, "center": true, "scale": true, "beta_initializer": {"class_name": "Zeros", "config": {}}, "gamma_initializer": {"class_name": "Ones", "config": {}}, "moving_mean_initializer": {"class_name": "Zeros", "config": {}}, "moving_variance_initializer": {"class_name": "Ones", "config": {}}, "beta_regularizer": null, "gamma_regularizer": null, "beta_constraint": null, "gamma_constraint": null}, "name": "batch_normalization_31", "inbound_nodes": [[["conv2d_31", 0, 0, {}]]]}, {"class_name": "Concatenate", "config": {"name": "concatenate_3", "trainable": true, "dtype": "float32", "axis": -1}, "name": "concatenate_3", "inbound_nodes": [[["batch_normalization_11", 0, 0, {}], ["batch_normalization_12", 0, 0, {}]]]}, {"class_name": "Concatenate", "config": {"name": "concatenate_9", "trainable": true, "dtype": "float32", "axis": -1}, "name": "concatenate_9", "inbound_nodes": [[["batch_normalization_30", 0, 0, {}], ["batch_normalization_31", 0, 0, {}]]]}, {"class_name": "MaxPooling2D", "config": {"name": "max_pooling2d_3", "trainable": true, "dtype": "float32", "pool_size": [2, 2], "padding": "valid", "strides": [2, 2], "data_format": "channels_last"}, "name": "max_pooling2d_3", "inbound_nodes": [[["concatenate_3", 0, 0, {}]]]}, {"class_name": "MaxPooling2D", "config": {"name": "max_pooling2d_8", "trainable": true, "dtype": "float32", "pool_size": [2, 2], "padding": "valid", "strides": [2, 2], "data_format": "channels_last"}, "name": "max_pooling2d_8", "inbound_nodes": [[["concatenate_9", 0, 0, {}]]]}, {"class_name": "Conv2D", "config": {"name": "conv2d_13", "trainable": true, "dtype": "float32", "filters": 24, "kernel_size": [1, 1], "strides": [1, 1], "padding": "same", "data_format": "channels_last", "dilation_rate": [1, 1], "groups": 1, "activation": "relu", "use_bias": true, "kernel_initializer": {"class_name": "GlorotUniform", "config": {"seed": null}}, "bias_initializer": {"class_name": "Zeros", "config": {}}, "kernel_regularizer": null, "bias_regularizer": null, "activity_regularizer": null, "kernel_constraint": null, "bias_constraint": null}, "name": "conv2d_13", "inbound_nodes": [[["max_pooling2d_3", 0, 0, {}]]]}, {"class_name": "Conv2D", "config": {"name": "conv2d_32", "trainable": true, "dtype": "float32", "filters": 24, "kernel_size": [1, 1], "strides": [1, 1], "padding": "same", "data_format": "channels_last", "dilation_rate": [1, 1], "groups": 1, "activation": "relu", "use_bias": true, "kernel_initializer": {"class_name": "GlorotUniform", "config": {"seed": null}}, "bias_initializer": {"class_name": "Zeros", "config": {}}, "kernel_regularizer": null, "bias_regularizer": null, "activity_regularizer": null, "kernel_constraint": null, "bias_constraint": null}, "name": "conv2d_32", "inbound_nodes": [[["max_pooling2d_8", 0, 0, {}]]]}, {"class_name": "BatchNormalization", "config": {"name": "batch_normalization_13", "trainable": true, "dtype": "float32", "axis": [3], "momentum": 0.9, "epsilon": 0.001, "center": true, "scale": true, "beta_initializer": {"class_name": "Zeros", "config": {}}, "gamma_initializer": {"class_name": "Ones", "config": {}}, "moving_mean_initializer": {"class_name": "Zeros", "config": {}}, "moving_variance_initializer": {"class_name": "Ones", "config": {}}, "beta_regularizer": null, "gamma_regularizer": null, "beta_constraint": null, "gamma_constraint": null}, "name": "batch_normalization_13", "inbound_nodes": [[["conv2d_13", 0, 0, {}]]]}, {"class_name": "BatchNormalization", "config": {"name": "batch_normalization_32", "trainable": true, "dtype": "float32", "axis": [3], "momentum": 0.9, "epsilon": 0.001, "center": true, "scale": true, "beta_initializer": {"class_name": "Zeros", "config": {}}, "gamma_initializer": {"class_name": "Ones", "config": {}}, "moving_mean_initializer": {"class_name": "Zeros", "config": {}}, "moving_variance_initializer": {"class_name": "Ones", "config": {}}, "beta_regularizer": null, "gamma_regularizer": null, "beta_constraint": null, "gamma_constraint": null}, "name": "batch_normalization_32", "inbound_nodes": [[["conv2d_32", 0, 0, {}]]]}, {"class_name": "Conv2D", "config": {"name": "conv2d_14", "trainable": true, "dtype": "float32", "filters": 24, "kernel_size": [1, 1], "strides": [1, 1], "padding": "same", "data_format": "channels_last", "dilation_rate": [1, 1], "groups": 1, "activation": "relu", "use_bias": true, "kernel_initializer": {"class_name": "GlorotUniform", "config": {"seed": null}}, "bias_initializer": {"class_name": "Zeros", "config": {}}, "kernel_regularizer": null, "bias_regularizer": null, "activity_regularizer": null, "kernel_constraint": null, "bias_constraint": null}, "name": "conv2d_14", "inbound_nodes": [[["batch_normalization_13", 0, 0, {}]]]}, {"class_name": "Conv2D", "config": {"name": "conv2d_15", "trainable": true, "dtype": "float32", "filters": 24, "kernel_size": [3, 3], "strides": [1, 1], "padding": "same", "data_format": "channels_last", "dilation_rate": [1, 1], "groups": 1, "activation": "relu", "use_bias": true, "kernel_initializer": {"class_name": "GlorotUniform", "config": {"seed": null}}, "bias_initializer": {"class_name": "Zeros", "config": {}}, "kernel_regularizer": null, "bias_regularizer": null, "activity_regularizer": null, "kernel_constraint": null, "bias_constraint": null}, "name": "conv2d_15", "inbound_nodes": [[["batch_normalization_13", 0, 0, {}]]]}, {"class_name": "Conv2D", "config": {"name": "conv2d_33", "trainable": true, "dtype": "float32", "filters": 24, "kernel_size": [1, 1], "strides": [1, 1], "padding": "same", "data_format": "channels_last", "dilation_rate": [1, 1], "groups": 1, "activation": "relu", "use_bias": true, "kernel_initializer": {"class_name": "GlorotUniform", "config": {"seed": null}}, "bias_initializer": {"class_name": "Zeros", "config": {}}, "kernel_regularizer": null, "bias_regularizer": null, "activity_regularizer": null, "kernel_constraint": null, "bias_constraint": null}, "name": "conv2d_33", "inbound_nodes": [[["batch_normalization_32", 0, 0, {}]]]}, {"class_name": "Conv2D", "config": {"name": "conv2d_34", "trainable": true, "dtype": "float32", "filters": 24, "kernel_size": [3, 3], "strides": [1, 1], "padding": "same", "data_format": "channels_last", "dilation_rate": [1, 1], "groups": 1, "activation": "relu", "use_bias": true, "kernel_initializer": {"class_name": "GlorotUniform", "config": {"seed": null}}, "bias_initializer": {"class_name": "Zeros", "config": {}}, "kernel_regularizer": null, "bias_regularizer": null, "activity_regularizer": null, "kernel_constraint": null, "bias_constraint": null}, "name": "conv2d_34", "inbound_nodes": [[["batch_normalization_32", 0, 0, {}]]]}, {"class_name": "BatchNormalization", "config": {"name": "batch_normalization_14", "trainable": true, "dtype": "float32", "axis": [3], "momentum": 0.9, "epsilon": 0.001, "center": true, "scale": true, "beta_initializer": {"class_name": "Zeros", "config": {}}, "gamma_initializer": {"class_name": "Ones", "config": {}}, "moving_mean_initializer": {"class_name": "Zeros", "config": {}}, "moving_variance_initializer": {"class_name": "Ones", "config": {}}, "beta_regularizer": null, "gamma_regularizer": null, "beta_constraint": null, "gamma_constraint": null}, "name": "batch_normalization_14", "inbound_nodes": [[["conv2d_14", 0, 0, {}]]]}, {"class_name": "BatchNormalization", "config": {"name": "batch_normalization_15", "trainable": true, "dtype": "float32", "axis": [3], "momentum": 0.9, "epsilon": 0.001, "center": true, "scale": true, "beta_initializer": {"class_name": "Zeros", "config": {}}, "gamma_initializer": {"class_name": "Ones", "config": {}}, "moving_mean_initializer": {"class_name": "Zeros", "config": {}}, "moving_variance_initializer": {"class_name": "Ones", "config": {}}, "beta_regularizer": null, "gamma_regularizer": null, "beta_constraint": null, "gamma_constraint": null}, "name": "batch_normalization_15", "inbound_nodes": [[["conv2d_15", 0, 0, {}]]]}, {"class_name": "BatchNormalization", "config": {"name": "batch_normalization_33", "trainable": true, "dtype": "float32", "axis": [3], "momentum": 0.9, "epsilon": 0.001, "center": true, "scale": true, "beta_initializer": {"class_name": "Zeros", "config": {}}, "gamma_initializer": {"class_name": "Ones", "config": {}}, "moving_mean_initializer": {"class_name": "Zeros", "config": {}}, "moving_variance_initializer": {"class_name": "Ones", "config": {}}, "beta_regularizer": null, "gamma_regularizer": null, "beta_constraint": null, "gamma_constraint": null}, "name": "batch_normalization_33", "inbound_nodes": [[["conv2d_33", 0, 0, {}]]]}, {"class_name": "BatchNormalization", "config": {"name": "batch_normalization_34", "trainable": true, "dtype": "float32", "axis": [3], "momentum": 0.9, "epsilon": 0.001, "center": true, "scale": true, "beta_initializer": {"class_name": "Zeros", "config": {}}, "gamma_initializer": {"class_name": "Ones", "config": {}}, "moving_mean_initializer": {"class_name": "Zeros", "config": {}}, "moving_variance_initializer": {"class_name": "Ones", "config": {}}, "beta_regularizer": null, "gamma_regularizer": null, "beta_constraint": null, "gamma_constraint": null}, "name": "batch_normalization_34", "inbound_nodes": [[["conv2d_34", 0, 0, {}]]]}, {"class_name": "Concatenate", "config": {"name": "concatenate_4", "trainable": true, "dtype": "float32", "axis": -1}, "name": "concatenate_4", "inbound_nodes": [[["batch_normalization_14", 0, 0, {}], ["batch_normalization_15", 0, 0, {}]]]}, {"class_name": "Concatenate", "config": {"name": "concatenate_10", "trainable": true, "dtype": "float32", "axis": -1}, "name": "concatenate_10", "inbound_nodes": [[["batch_normalization_33", 0, 0, {}], ["batch_normalization_34", 0, 0, {}]]]}, {"class_name": "MaxPooling2D", "config": {"name": "max_pooling2d_4", "trainable": true, "dtype": "float32", "pool_size": [2, 2], "padding": "valid", "strides": [2, 2], "data_format": "channels_last"}, "name": "max_pooling2d_4", "inbound_nodes": [[["concatenate_4", 0, 0, {}]]]}, {"class_name": "MaxPooling2D", "config": {"name": "max_pooling2d_9", "trainable": true, "dtype": "float32", "pool_size": [2, 2], "padding": "valid", "strides": [2, 2], "data_format": "channels_last"}, "name": "max_pooling2d_9", "inbound_nodes": [[["concatenate_10", 0, 0, {}]]]}, {"class_name": "Conv2D", "config": {"name": "conv2d_16", "trainable": true, "dtype": "float32", "filters": 12, "kernel_size": [1, 1], "strides": [1, 1], "padding": "same", "data_format": "channels_last", "dilation_rate": [1, 1], "groups": 1, "activation": "relu", "use_bias": true, "kernel_initializer": {"class_name": "GlorotUniform", "config": {"seed": null}}, "bias_initializer": {"class_name": "Zeros", "config": {}}, "kernel_regularizer": null, "bias_regularizer": null, "activity_regularizer": null, "kernel_constraint": null, "bias_constraint": null}, "name": "conv2d_16", "inbound_nodes": [[["max_pooling2d_4", 0, 0, {}]]]}, {"class_name": "Conv2D", "config": {"name": "conv2d_35", "trainable": true, "dtype": "float32", "filters": 12, "kernel_size": [1, 1], "strides": [1, 1], "padding": "same", "data_format": "channels_last", "dilation_rate": [1, 1], "groups": 1, "activation": "relu", "use_bias": true, "kernel_initializer": {"class_name": "GlorotUniform", "config": {"seed": null}}, "bias_initializer": {"class_name": "Zeros", "config": {}}, "kernel_regularizer": null, "bias_regularizer": null, "activity_regularizer": null, "kernel_constraint": null, "bias_constraint": null}, "name": "conv2d_35", "inbound_nodes": [[["max_pooling2d_9", 0, 0, {}]]]}, {"class_name": "BatchNormalization", "config": {"name": "batch_normalization_16", "trainable": true, "dtype": "float32", "axis": [3], "momentum": 0.9, "epsilon": 0.001, "center": true, "scale": true, "beta_initializer": {"class_name": "Zeros", "config": {}}, "gamma_initializer": {"class_name": "Ones", "config": {}}, "moving_mean_initializer": {"class_name": "Zeros", "config": {}}, "moving_variance_initializer": {"class_name": "Ones", "config": {}}, "beta_regularizer": null, "gamma_regularizer": null, "beta_constraint": null, "gamma_constraint": null}, "name": "batch_normalization_16", "inbound_nodes": [[["conv2d_16", 0, 0, {}]]]}, {"class_name": "BatchNormalization", "config": {"name": "batch_normalization_35", "trainable": true, "dtype": "float32", "axis": [3], "momentum": 0.9, "epsilon": 0.001, "center": true, "scale": true, "beta_initializer": {"class_name": "Zeros", "config": {}}, "gamma_initializer": {"class_name": "Ones", "config": {}}, "moving_mean_initializer": {"class_name": "Zeros", "config": {}}, "moving_variance_initializer": {"class_name": "Ones", "config": {}}, "beta_regularizer": null, "gamma_regularizer": null, "beta_constraint": null, "gamma_constraint": null}, "name": "batch_normalization_35", "inbound_nodes": [[["conv2d_35", 0, 0, {}]]]}, {"class_name": "Conv2D", "config": {"name": "conv2d_17", "trainable": true, "dtype": "float32", "filters": 12, "kernel_size": [1, 1], "strides": [1, 1], "padding": "same", "data_format": "channels_last", "dilation_rate": [1, 1], "groups": 1, "activation": "relu", "use_bias": true, "kernel_initializer": {"class_name": "GlorotUniform", "config": {"seed": null}}, "bias_initializer": {"class_name": "Zeros", "config": {}}, "kernel_regularizer": null, "bias_regularizer": null, "activity_regularizer": null, "kernel_constraint": null, "bias_constraint": null}, "name": "conv2d_17", "inbound_nodes": [[["batch_normalization_16", 0, 0, {}]]]}, {"class_name": "Conv2D", "config": {"name": "conv2d_18", "trainable": true, "dtype": "float32", "filters": 12, "kernel_size": [3, 3], "strides": [1, 1], "padding": "same", "data_format": "channels_last", "dilation_rate": [1, 1], "groups": 1, "activation": "relu", "use_bias": true, "kernel_initializer": {"class_name": "GlorotUniform", "config": {"seed": null}}, "bias_initializer": {"class_name": "Zeros", "config": {}}, "kernel_regularizer": null, "bias_regularizer": null, "activity_regularizer": null, "kernel_constraint": null, "bias_constraint": null}, "name": "conv2d_18", "inbound_nodes": [[["batch_normalization_16", 0, 0, {}]]]}, {"class_name": "Conv2D", "config": {"name": "conv2d_36", "trainable": true, "dtype": "float32", "filters": 12, "kernel_size": [1, 1], "strides": [1, 1], "padding": "same", "data_format": "channels_last", "dilation_rate": [1, 1], "groups": 1, "activation": "relu", "use_bias": true, "kernel_initializer": {"class_name": "GlorotUniform", "config": {"seed": null}}, "bias_initializer": {"class_name": "Zeros", "config": {}}, "kernel_regularizer": null, "bias_regularizer": null, "activity_regularizer": null, "kernel_constraint": null, "bias_constraint": null}, "name": "conv2d_36", "inbound_nodes": [[["batch_normalization_35", 0, 0, {}]]]}, {"class_name": "Conv2D", "config": {"name": "conv2d_37", "trainable": true, "dtype": "float32", "filters": 12, "kernel_size": [3, 3], "strides": [1, 1], "padding": "same", "data_format": "channels_last", "dilation_rate": [1, 1], "groups": 1, "activation": "relu", "use_bias": true, "kernel_initializer": {"class_name": "GlorotUniform", "config": {"seed": null}}, "bias_initializer": {"class_name": "Zeros", "config": {}}, "kernel_regularizer": null, "bias_regularizer": null, "activity_regularizer": null, "kernel_constraint": null, "bias_constraint": null}, "name": "conv2d_37", "inbound_nodes": [[["batch_normalization_35", 0, 0, {}]]]}, {"class_name": "BatchNormalization", "config": {"name": "batch_normalization_17", "trainable": true, "dtype": "float32", "axis": [3], "momentum": 0.9, "epsilon": 0.001, "center": true, "scale": true, "beta_initializer": {"class_name": "Zeros", "config": {}}, "gamma_initializer": {"class_name": "Ones", "config": {}}, "moving_mean_initializer": {"class_name": "Zeros", "config": {}}, "moving_variance_initializer": {"class_name": "Ones", "config": {}}, "beta_regularizer": null, "gamma_regularizer": null, "beta_constraint": null, "gamma_constraint": null}, "name": "batch_normalization_17", "inbound_nodes": [[["conv2d_17", 0, 0, {}]]]}, {"class_name": "BatchNormalization", "config": {"name": "batch_normalization_18", "trainable": true, "dtype": "float32", "axis": [3], "momentum": 0.9, "epsilon": 0.001, "center": true, "scale": true, "beta_initializer": {"class_name": "Zeros", "config": {}}, "gamma_initializer": {"class_name": "Ones", "config": {}}, "moving_mean_initializer": {"class_name": "Zeros", "config": {}}, "moving_variance_initializer": {"class_name": "Ones", "config": {}}, "beta_regularizer": null, "gamma_regularizer": null, "beta_constraint": null, "gamma_constraint": null}, "name": "batch_normalization_18", "inbound_nodes": [[["conv2d_18", 0, 0, {}]]]}, {"class_name": "BatchNormalization", "config": {"name": "batch_normalization_36", "trainable": true, "dtype": "float32", "axis": [3], "momentum": 0.9, "epsilon": 0.001, "center": true, "scale": true, "beta_initializer": {"class_name": "Zeros", "config": {}}, "gamma_initializer": {"class_name": "Ones", "config": {}}, "moving_mean_initializer": {"class_name": "Zeros", "config": {}}, "moving_variance_initializer": {"class_name": "Ones", "config": {}}, "beta_regularizer": null, "gamma_regularizer": null, "beta_constraint": null, "gamma_constraint": null}, "name": "batch_normalization_36", "inbound_nodes": [[["conv2d_36", 0, 0, {}]]]}, {"class_name": "BatchNormalization", "config": {"name": "batch_normalization_37", "trainable": true, "dtype": "float32", "axis": [3], "momentum": 0.9, "epsilon": 0.001, "center": true, "scale": true, "beta_initializer": {"class_name": "Zeros", "config": {}}, "gamma_initializer": {"class_name": "Ones", "config": {}}, "moving_mean_initializer": {"class_name": "Zeros", "config": {}}, "moving_variance_initializer": {"class_name": "Ones", "config": {}}, "beta_regularizer": null, "gamma_regularizer": null, "beta_constraint": null, "gamma_constraint": null}, "name": "batch_normalization_37", "inbound_nodes": [[["conv2d_37", 0, 0, {}]]]}, {"class_name": "Concatenate", "config": {"name": "concatenate_5", "trainable": true, "dtype": "float32", "axis": -1}, "name": "concatenate_5", "inbound_nodes": [[["batch_normalization_17", 0, 0, {}], ["batch_normalization_18", 0, 0, {}]]]}, {"class_name": "Concatenate", "config": {"name": "concatenate_11", "trainable": true, "dtype": "float32", "axis": -1}, "name": "concatenate_11", "inbound_nodes": [[["batch_normalization_36", 0, 0, {}], ["batch_normalization_37", 0, 0, {}]]]}, {"class_name": "GlobalAveragePooling2D", "config": {"name": "global_average_pooling2d", "trainable": true, "dtype": "float32", "data_format": "channels_last", "keepdims": false}, "name": "global_average_pooling2d", "inbound_nodes": [[["concatenate_5", 0, 0, {}]]]}, {"class_name": "GlobalAveragePooling2D", "config": {"name": "global_average_pooling2d_1", "trainable": true, "dtype": "float32", "data_format": "channels_last", "keepdims": false}, "name": "global_average_pooling2d_1", "inbound_nodes": [[["concatenate_11", 0, 0, {}]]]}, {"class_name": "Dense", "config": {"name": "dense", "trainable": true, "dtype": "float32", "units": 5, "activation": "softmax", "use_bias": true, "kernel_initializer": {"class_name": "GlorotUniform", "config": {"seed": null}}, "bias_initializer": {"class_name": "Zeros", "config": {}}, "kernel_regularizer": null, "bias_regularizer": null, "activity_regularizer": null, "kernel_constraint": null, "bias_constraint": null}, "name": "dense", "inbound_nodes": [[["global_average_pooling2d", 0, 0, {}]]]}, {"class_name": "Dense", "config": {"name": "dense_1", "trainable": true, "dtype": "float32", "units": 5, "activation": "softmax", "use_bias": true, "kernel_initializer": {"class_name": "GlorotUniform", "config": {"seed": null}}, "bias_initializer": {"class_name": "Zeros", "config": {}}, "kernel_regularizer": null, "bias_regularizer": null, "activity_regularizer": null, "kernel_constraint": null, "bias_constraint": null}, "name": "dense_1", "inbound_nodes": [[["global_average_pooling2d_1", 0, 0, {}]]]}, {"class_name": "Concatenate", "config": {"name": "concatenate_12", "trainable": true, "dtype": "float32", "axis": -1}, "name": "concatenate_12", "inbound_nodes": [[["dense", 0, 0, {}], ["dense_1", 0, 0, {}]]]}, {"class_name": "Dense", "config": {"name": "dense_2", "trainable": true, "dtype": "float32", "units": 15, "activation": "relu", "use_bias": true, "kernel_initializer": {"class_name": "GlorotUniform", "config": {"seed": null}}, "bias_initializer": {"class_name": "Zeros", "config": {}}, "kernel_regularizer": null, "bias_regularizer": null, "activity_regularizer": null, "kernel_constraint": null, "bias_constraint": null}, "name": "dense_2", "inbound_nodes": [[["concatenate_12", 0, 0, {}]]]}, {"class_name": "Dropout", "config": {"name": "dropout", "trainable": true, "dtype": "float32", "rate": 0.25, "noise_shape": null, "seed": null}, "name": "dropout", "inbound_nodes": [[["dense_2", 0, 0, {}]]]}, {"class_name": "Dense", "config": {"name": "dense_3", "trainable": true, "dtype": "float32", "units": 2, "activation": "linear", "use_bias": true, "kernel_initializer": {"class_name": "GlorotUniform", "config": {"seed": null}}, "bias_initializer": {"class_name": "Zeros", "config": {}}, "kernel_regularizer": null, "bias_regularizer": null, "activity_regularizer": null, "kernel_constraint": null, "bias_constraint": null}, "name": "dense_3", "inbound_nodes": [[["dropout", 0, 0, {}]]]}], "input_layers": [["input_1", 0, 0], ["input_2", 0, 0]], "output_layers": [["dense_3", 0, 0]]}}, "training_config": {"loss": {"class_name": "MeanSquaredError", "config": {"reduction": "auto", "name": "mean_squared_error"}}, "metrics": null, "weighted_metrics": null, "loss_weights": null, "optimizer_config": {"class_name": "Adam", "config": {"name": "Adam", "learning_rate": 0.0010000000474974513, "decay": 0.0, "beta_1": 0.8999999761581421, "beta_2": 0.9990000128746033, "epsilon": 1e-07, "amsgrad": false}}}}, "weightsManifest": [{"paths": ["group1-shard1of1.bin"], "weights": [{"name": "batch_normalization/gamma", "shape": [32], "dtype": "float32"}, {"name": "batch_normalization/beta", "shape": [32], "dtype": "float32"}, {"name": "batch_normalization/moving_mean", "shape": [32], "dtype": "float32"}, {"name": "batch_normalization/moving_variance", "shape": [32], "dtype": "float32"}, {"name": "batch_normalization_1/gamma", "shape": [24], "dtype": "float32"}, {"name": "batch_normalization_1/beta", "shape": [24], "dtype": "float32"}, {"name": "batch_normalization_1/moving_mean", "shape": [24], "dtype": "float32"}, {"name": "batch_normalization_1/moving_variance", "shape": [24], "dtype": "float32"}, {"name": "batch_normalization_10/gamma", "shape": [48], "dtype": "float32"}, {"name": "batch_normalization_10/beta", "shape": [48], "dtype": "float32"}, {"name": "batch_normalization_10/moving_mean", "shape": [48], "dtype": "float32"}, {"name": "batch_normalization_10/moving_variance", "shape": [48], "dtype": "float32"}, {"name": "batch_normalization_11/gamma", "shape": [48], "dtype": "float32"}, {"name": "batch_normalization_11/beta", "shape": [48], "dtype": "float32"}, {"name": "batch_normalization_11/moving_mean", "shape": [48], "dtype": "float32"}, {"name": "batch_normalization_11/moving_variance", "shape": [48], "dtype": "float32"}, {"name": "batch_normalization_12/gamma", "shape": [48], "dtype": "float32"}, {"name": "batch_normalization_12/beta", "shape": [48], "dtype": "float32"}, {"name": "batch_normalization_12/moving_mean", "shape": [48], "dtype": "float32"}, {"name": "batch_normalization_12/moving_variance", "shape": [48], "dtype": "float32"}, {"name": "batch_normalization_13/gamma", "shape": [24], "dtype": "float32"}, {"name": "batch_normalization_13/beta", "shape": [24], "dtype": "float32"}, {"name": "batch_normalization_13/moving_mean", "shape": [24], "dtype": "float32"}, {"name": "batch_normalization_13/moving_variance", "shape": [24], "dtype": "float32"}, {"name": "batch_normalization_14/gamma", "shape": [24], "dtype": "float32"}, {"name": "batch_normalization_14/beta", "shape": [24], "dtype": "float32"}, {"name": "batch_normalization_14/moving_mean", "shape": [24], "dtype": "float32"}, {"name": "batch_normalization_14/moving_variance", "shape": [24], "dtype": "float32"}, {"name": "batch_normalization_15/gamma", "shape": [24], "dtype": "float32"}, {"name": "batch_normalization_15/beta", "shape": [24], "dtype": "float32"}, {"name": "batch_normalization_15/moving_mean", "shape": [24], "dtype": "float32"}, {"name": "batch_normalization_15/moving_variance", "shape": [24], "dtype": "float32"}, {"name": "batch_normalization_16/gamma", "shape": [12], "dtype": "float32"}, {"name": "batch_normalization_16/beta", "shape": [12], "dtype": "float32"}, {"name": "batch_normalization_16/moving_mean", "shape": [12], "dtype": "float32"}, {"name": "batch_normalization_16/moving_variance", "shape": [12], "dtype": "float32"}, {"name": "batch_normalization_17/gamma", "shape": [12], "dtype": "float32"}, {"name": "batch_normalization_17/beta", "shape": [12], "dtype": "float32"}, {"name": "batch_normalization_17/moving_mean", "shape": [12], "dtype": "float32"}, {"name": "batch_normalization_17/moving_variance", "shape": [12], "dtype": "float32"}, {"name": "batch_normalization_18/gamma", "shape": [12], "dtype": "float32"}, {"name": "batch_normalization_18/beta", "shape": [12], "dtype": "float32"}, {"name": "batch_normalization_18/moving_mean", "shape": [12], "dtype": "float32"}, {"name": "batch_normalization_18/moving_variance", "shape": [12], "dtype": "float32"}, {"name": "batch_normalization_19/gamma", "shape": [32], "dtype": "float32"}, {"name": "batch_normalization_19/beta", "shape": [32], "dtype": "float32"}, {"name": "batch_normalization_19/moving_mean", "shape": [32], "dtype": "float32"}, {"name": "batch_normalization_19/moving_variance", "shape": [32], "dtype": "float32"}, {"name": "batch_normalization_2/gamma", "shape": [24], "dtype": "float32"}, {"name": "batch_normalization_2/beta", "shape": [24], "dtype": "float32"}, {"name": "batch_normalization_2/moving_mean", "shape": [24], "dtype": "float32"}, {"name": "batch_normalization_2/moving_variance", "shape": [24], "dtype": "float32"}, {"name": "batch_normalization_20/gamma", "shape": [24], "dtype": "float32"}, {"name": "batch_normalization_20/beta", "shape": [24], "dtype": "float32"}, {"name": "batch_normalization_20/moving_mean", "shape": [24], "dtype": "float32"}, {"name": "batch_normalization_20/moving_variance", "shape": [24], "dtype": "float32"}, {"name": "batch_normalization_21/gamma", "shape": [24], "dtype": "float32"}, {"name": "batch_normalization_21/beta", "shape": [24], "dtype": "float32"}, {"name": "batch_normalization_21/moving_mean", "shape": [24], "dtype": "float32"}, {"name": "batch_normalization_21/moving_variance", "shape": [24], "dtype": "float32"}, {"name": "batch_normalization_22/gamma", "shape": [24], "dtype": "float32"}, {"name": "batch_normalization_22/beta", "shape": [24], "dtype": "float32"}, {"name": "batch_normalization_22/moving_mean", "shape": [24], "dtype": "float32"}, {"name": "batch_normalization_22/moving_variance", "shape": [24], "dtype": "float32"}, {"name": "batch_normalization_23/gamma", "shape": [48], "dtype": "float32"}, {"name": "batch_normalization_23/beta", "shape": [48], "dtype": "float32"}, {"name": "batch_normalization_23/moving_mean", "shape": [48], "dtype": "float32"}, {"name": "batch_normalization_23/moving_variance", "shape": [48], "dtype": "float32"}, {"name": "batch_normalization_24/gamma", "shape": [48], "dtype": "float32"}, {"name": "batch_normalization_24/beta", "shape": [48], "dtype": "float32"}, {"name": "batch_normalization_24/moving_mean", "shape": [48], "dtype": "float32"}, {"name": "batch_normalization_24/moving_variance", "shape": [48], "dtype": "float32"}, {"name": "batch_normalization_25/gamma", "shape": [48], "dtype": "float32"}, {"name": "batch_normalization_25/beta", "shape": [48], "dtype": "float32"}, {"name": "batch_normalization_25/moving_mean", "shape": [48], "dtype": "float32"}, {"name": "batch_normalization_25/moving_variance", "shape": [48], "dtype": "float32"}, {"name": "batch_normalization_26/gamma", "shape": [64], "dtype": "float32"}, {"name": "batch_normalization_26/beta", "shape": [64], "dtype": "float32"}, {"name": "batch_normalization_26/moving_mean", "shape": [64], "dtype": "float32"}, {"name": "batch_normalization_26/moving_variance", "shape": [64], "dtype": "float32"}, {"name": "batch_normalization_27/gamma", "shape": [64], "dtype": "float32"}, {"name": "batch_normalization_27/beta", "shape": [64], "dtype": "float32"}, {"name": "batch_normalization_27/moving_mean", "shape": [64], "dtype": "float32"}, {"name": "batch_normalization_27/moving_variance", "shape": [64], "dtype": "float32"}, {"name": "batch_normalization_28/gamma", "shape": [64], "dtype": "float32"}, {"name": "batch_normalization_28/beta", "shape": [64], "dtype": "float32"}, {"name": "batch_normalization_28/moving_mean", "shape": [64], "dtype": "float32"}, {"name": "batch_normalization_28/moving_variance", "shape": [64], "dtype": "float32"}, {"name": "batch_normalization_29/gamma", "shape": [48], "dtype": "float32"}, {"name": "batch_normalization_29/beta", "shape": [48], "dtype": "float32"}, {"name": "batch_normalization_29/moving_mean", "shape": [48], "dtype": "float32"}, {"name": "batch_normalization_29/moving_variance", "shape": [48], "dtype": "float32"}, {"name": "batch_normalization_3/gamma", "shape": [24], "dtype": "float32"}, {"name": "batch_normalization_3/beta", "shape": [24], "dtype": "float32"}, {"name": "batch_normalization_3/moving_mean", "shape": [24], "dtype": "float32"}, {"name": "batch_normalization_3/moving_variance", "shape": [24], "dtype": "float32"}, {"name": "batch_normalization_30/gamma", "shape": [48], "dtype": "float32"}, {"name": "batch_normalization_30/beta", "shape": [48], "dtype": "float32"}, {"name": "batch_normalization_30/moving_mean", "shape": [48], "dtype": "float32"}, {"name": "batch_normalization_30/moving_variance", "shape": [48], "dtype": "float32"}, {"name": "batch_normalization_31/gamma", "shape": [48], "dtype": "float32"}, {"name": "batch_normalization_31/beta", "shape": [48], "dtype": "float32"}, {"name": "batch_normalization_31/moving_mean", "shape": [48], "dtype": "float32"}, {"name": "batch_normalization_31/moving_variance", "shape": [48], "dtype": "float32"}, {"name": "batch_normalization_32/gamma", "shape": [24], "dtype": "float32"}, {"name": "batch_normalization_32/beta", "shape": [24], "dtype": "float32"}, {"name": "batch_normalization_32/moving_mean", "shape": [24], "dtype": "float32"}, {"name": "batch_normalization_32/moving_variance", "shape": [24], "dtype": "float32"}, {"name": "batch_normalization_33/gamma", "shape": [24], "dtype": "float32"}, {"name": "batch_normalization_33/beta", "shape": [24], "dtype": "float32"}, {"name": "batch_normalization_33/moving_mean", "shape": [24], "dtype": "float32"}, {"name": "batch_normalization_33/moving_variance", "shape": [24], "dtype": "float32"}, {"name": "batch_normalization_34/gamma", "shape": [24], "dtype": "float32"}, {"name": "batch_normalization_34/beta", "shape": [24], "dtype": "float32"}, {"name": "batch_normalization_34/moving_mean", "shape": [24], "dtype": "float32"}, {"name": "batch_normalization_34/moving_variance", "shape": [24], "dtype": "float32"}, {"name": "batch_normalization_35/gamma", "shape": [12], "dtype": "float32"}, {"name": "batch_normalization_35/beta", "shape": [12], "dtype": "float32"}, {"name": "batch_normalization_35/moving_mean", "shape": [12], "dtype": "float32"}, {"name": "batch_normalization_35/moving_variance", "shape": [12], "dtype": "float32"}, {"name": "batch_normalization_36/gamma", "shape": [12], "dtype": "float32"}, {"name": "batch_normalization_36/beta", "shape": [12], "dtype": "float32"}, {"name": "batch_normalization_36/moving_mean", "shape": [12], "dtype": "float32"}, {"name": "batch_normalization_36/moving_variance", "shape": [12], "dtype": "float32"}, {"name": "batch_normalization_37/gamma", "shape": [12], "dtype": "float32"}, {"name": "batch_normalization_37/beta", "shape": [12], "dtype": "float32"}, {"name": "batch_normalization_37/moving_mean", "shape": [12], "dtype": "float32"}, {"name": "batch_normalization_37/moving_variance", "shape": [12], "dtype": "float32"}, {"name": "batch_normalization_4/gamma", "shape": [48], "dtype": "float32"}, {"name": "batch_normalization_4/beta", "shape": [48], "dtype": "float32"}, {"name": "batch_normalization_4/moving_mean", "shape": [48], "dtype": "float32"}, {"name": "batch_normalization_4/moving_variance", "shape": [48], "dtype": "float32"}, {"name": "batch_normalization_5/gamma", "shape": [48], "dtype": "float32"}, {"name": "batch_normalization_5/beta", "shape": [48], "dtype": "float32"}, {"name": "batch_normalization_5/moving_mean", "shape": [48], "dtype": "float32"}, {"name": "batch_normalization_5/moving_variance", "shape": [48], "dtype": "float32"}, {"name": "batch_normalization_6/gamma", "shape": [48], "dtype": "float32"}, {"name": "batch_normalization_6/beta", "shape": [48], "dtype": "float32"}, {"name": "batch_normalization_6/moving_mean", "shape": [48], "dtype": "float32"}, {"name": "batch_normalization_6/moving_variance", "shape": [48], "dtype": "float32"}, {"name": "batch_normalization_7/gamma", "shape": [64], "dtype": "float32"}, {"name": "batch_normalization_7/beta", "shape": [64], "dtype": "float32"}, {"name": "batch_normalization_7/moving_mean", "shape": [64], "dtype": "float32"}, {"name": "batch_normalization_7/moving_variance", "shape": [64], "dtype": "float32"}, {"name": "batch_normalization_8/gamma", "shape": [64], "dtype": "float32"}, {"name": "batch_normalization_8/beta", "shape": [64], "dtype": "float32"}, {"name": "batch_normalization_8/moving_mean", "shape": [64], "dtype": "float32"}, {"name": "batch_normalization_8/moving_variance", "shape": [64], "dtype": "float32"}, {"name": "batch_normalization_9/gamma", "shape": [64], "dtype": "float32"}, {"name": "batch_normalization_9/beta", "shape": [64], "dtype": "float32"}, {"name": "batch_normalization_9/moving_mean", "shape": [64], "dtype": "float32"}, {"name": "batch_normalization_9/moving_variance", "shape": [64], "dtype": "float32"}, {"name": "conv2d/kernel", "shape": [3, 3, 3, 32], "dtype": "float32"}, {"name": "conv2d/bias", "shape": [32], "dtype": "float32"}, {"name": "conv2d_1/kernel", "shape": [1, 1, 32, 24], "dtype": "float32"}, {"name": "conv2d_1/bias", "shape": [24], "dtype": "float32"}, {"name": "conv2d_10/kernel", "shape": [1, 1, 128, 48], "dtype": "float32"}, {"name": "conv2d_10/bias", "shape": [48], "dtype": "float32"}, {"name": "conv2d_11/kernel", "shape": [1, 1, 48, 48], "dtype": "float32"}, {"name": "conv2d_11/bias", "shape": [48], "dtype": "float32"}, {"name": "conv2d_12/kernel", "shape": [3, 3, 48, 48], "dtype": "float32"}, {"name": "conv2d_12/bias", "shape": [48], "dtype": "float32"}, {"name": "conv2d_13/kernel", "shape": [1, 1, 96, 24], "dtype": "float32"}, {"name": "conv2d_13/bias", "shape": [24], "dtype": "float32"}, {"name": "conv2d_14/kernel", "shape": [1, 1, 24, 24], "dtype": "float32"}, {"name": "conv2d_14/bias", "shape": [24], "dtype": "float32"}, {"name": "conv2d_15/kernel", "shape": [3, 3, 24, 24], "dtype": "float32"}, {"name": "conv2d_15/bias", "shape": [24], "dtype": "float32"}, {"name": "conv2d_16/kernel", "shape": [1, 1, 48, 12], "dtype": "float32"}, {"name": "conv2d_16/bias", "shape": [12], "dtype": "float32"}, {"name": "conv2d_17/kernel", "shape": [1, 1, 12, 12], "dtype": "float32"}, {"name": "conv2d_17/bias", "shape": [12], "dtype": "float32"}, {"name": "conv2d_18/kernel", "shape": [3, 3, 12, 12], "dtype": "float32"}, {"name": "conv2d_18/bias", "shape": [12], "dtype": "float32"}, {"name": "conv2d_19/kernel", "shape": [3, 3, 3, 32], "dtype": "float32"}, {"name": "conv2d_19/bias", "shape": [32], "dtype": "float32"}, {"name": "conv2d_2/kernel", "shape": [1, 1, 24, 24], "dtype": "float32"}, {"name": "conv2d_2/bias", "shape": [24], "dtype": "float32"}, {"name": "conv2d_20/kernel", "shape": [1, 1, 32, 24], "dtype": "float32"}, {"name": "conv2d_20/bias", "shape": [24], "dtype": "float32"}, {"name": "conv2d_21/kernel", "shape": [1, 1, 24, 24], "dtype": "float32"}, {"name": "conv2d_21/bias", "shape": [24], "dtype": "float32"}, {"name": "conv2d_22/kernel", "shape": [3, 3, 24, 24], "dtype": "float32"}, {"name": "conv2d_22/bias", "shape": [24], "dtype": "float32"}, {"name": "conv2d_23/kernel", "shape": [1, 1, 48, 48], "dtype": "float32"}, {"name": "conv2d_23/bias", "shape": [48], "dtype": "float32"}, {"name": "conv2d_24/kernel", "shape": [1, 1, 48, 48], "dtype": "float32"}, {"name": "conv2d_24/bias", "shape": [48], "dtype": "float32"}, {"name": "conv2d_25/kernel", "shape": [3, 3, 48, 48], "dtype": "float32"}, {"name": "conv2d_25/bias", "shape": [48], "dtype": "float32"}, {"name": "conv2d_26/kernel", "shape": [1, 1, 96, 64], "dtype": "float32"}, {"name": "conv2d_26/bias", "shape": [64], "dtype": "float32"}, {"name": "conv2d_27/kernel", "shape": [1, 1, 64, 64], "dtype": "float32"}, {"name": "conv2d_27/bias", "shape": [64], "dtype": "float32"}, {"name": "conv2d_28/kernel", "shape": [3, 3, 64, 64], "dtype": "float32"}, {"name": "conv2d_28/bias", "shape": [64], "dtype": "float32"}, {"name": "conv2d_29/kernel", "shape": [1, 1, 128, 48], "dtype": "float32"}, {"name": "conv2d_29/bias", "shape": [48], "dtype": "float32"}, {"name": "conv2d_3/kernel", "shape": [3, 3, 24, 24], "dtype": "float32"}, {"name": "conv2d_3/bias", "shape": [24], "dtype": "float32"}, {"name": "conv2d_30/kernel", "shape": [1, 1, 48, 48], "dtype": "float32"}, {"name": "conv2d_30/bias", "shape": [48], "dtype": "float32"}, {"name": "conv2d_31/kernel", "shape": [3, 3, 48, 48], "dtype": "float32"}, {"name": "conv2d_31/bias", "shape": [48], "dtype": "float32"}, {"name": "conv2d_32/kernel", "shape": [1, 1, 96, 24], "dtype": "float32"}, {"name": "conv2d_32/bias", "shape": [24], "dtype": "float32"}, {"name": "conv2d_33/kernel", "shape": [1, 1, 24, 24], "dtype": "float32"}, {"name": "conv2d_33/bias", "shape": [24], "dtype": "float32"}, {"name": "conv2d_34/kernel", "shape": [3, 3, 24, 24], "dtype": "float32"}, {"name": "conv2d_34/bias", "shape": [24], "dtype": "float32"}, {"name": "conv2d_35/kernel", "shape": [1, 1, 48, 12], "dtype": "float32"}, {"name": "conv2d_35/bias", "shape": [12], "dtype": "float32"}, {"name": "conv2d_36/kernel", "shape": [1, 1, 12, 12], "dtype": "float32"}, {"name": "conv2d_36/bias", "shape": [12], "dtype": "float32"}, {"name": "conv2d_37/kernel", "shape": [3, 3, 12, 12], "dtype": "float32"}, {"name": "conv2d_37/bias", "shape": [12], "dtype": "float32"}, {"name": "conv2d_4/kernel", "shape": [1, 1, 48, 48], "dtype": "float32"}, {"name": "conv2d_4/bias", "shape": [48], "dtype": "float32"}, {"name": "conv2d_5/kernel", "shape": [1, 1, 48, 48], "dtype": "float32"}, {"name": "conv2d_5/bias", "shape": [48], "dtype": "float32"}, {"name": "conv2d_6/kernel", "shape": [3, 3, 48, 48], "dtype": "float32"}, {"name": "conv2d_6/bias", "shape": [48], "dtype": "float32"}, {"name": "conv2d_7/kernel", "shape": [1, 1, 96, 64], "dtype": "float32"}, {"name": "conv2d_7/bias", "shape": [64], "dtype": "float32"}, {"name": "conv2d_8/kernel", "shape": [1, 1, 64, 64], "dtype": "float32"}, {"name": "conv2d_8/bias", "shape": [64], "dtype": "float32"}, {"name": "conv2d_9/kernel", "shape": [3, 3, 64, 64], "dtype": "float32"}, {"name": "conv2d_9/bias", "shape": [64], "dtype": "float32"}, {"name": "dense/kernel", "shape": [24, 5], "dtype": "float32"}, {"name": "dense/bias", "shape": [5], "dtype": "float32"}, {"name": "dense_1/kernel", "shape": [24, 5], "dtype": "float32"}, {"name": "dense_1/bias", "shape": [5], "dtype": "float32"}, {"name": "dense_2/kernel", "shape": [10, 15], "dtype": "float32"}, {"name": "dense_2/bias", "shape": [15], "dtype": "float32"}, {"name": "dense_3/kernel", "shape": [15, 2], "dtype": "float32"}, {"name": "dense_3/bias", "shape": [2], "dtype": "float32"}]}]}